…
Layer (type)                    Output Shape         Param #     Connected to                     
==================================================================================================
data (InputLayer)               (None, 1024, 1024, 3 0                                            
__________________________________________________________________________________________________
conv1_zeropadding (ZeroPadding2 (None, 1030, 1030, 3 0           data[0][0]                       
__________________________________________________________________________________________________
conv1 (Conv2D)                  (None, 512, 512, 64) 9408        conv1_zeropadding[0][0]          
__________________________________________________________________________________________________
bn_conv1 (BatchNormalization)   (None, 512, 512, 64) 256         conv1[0][0]                      
__________________________________________________________________________________________________
scale_conv1 (Scale)             (None, 512, 512, 64) 128         bn_conv1[0][0]                   
__________________________________________________________________________________________________
conv1_relu (Activation)         (None, 512, 512, 64) 0           scale_conv1[0][0]                
__________________________________________________________________________________________________
pool1 (MaxPooling2D)            (None, 256, 256, 64) 0           conv1_relu[0][0]                 
__________________________________________________________________________________________________
res2a_branch2a (Conv2D)         (None, 256, 256, 64) 4096        pool1[0][0]                      
__________________________________________________________________________________________________
bn2a_branch2a (BatchNormalizati (None, 256, 256, 64) 256         res2a_branch2a[0][0]             
__________________________________________________________________________________________________
scale2a_branch2a (Scale)        (None, 256, 256, 64) 128         bn2a_branch2a[0][0]              
__________________________________________________________________________________________________
res2a_branch2a_relu (Activation (None, 256, 256, 64) 0           scale2a_branch2a[0][0]           
__________________________________________________________________________________________________
res2a_branch2b_zeropadding (Zer (None, 258, 258, 64) 0           res2a_branch2a_relu[0][0]        
__________________________________________________________________________________________________
res2a_branch2b (Conv2D)         (None, 256, 256, 64) 36864       res2a_branch2b_zeropadding[0][0] 
__________________________________________________________________________________________________
bn2a_branch2b (BatchNormalizati (None, 256, 256, 64) 256         res2a_branch2b[0][0]             
__________________________________________________________________________________________________
scale2a_branch2b (Scale)        (None, 256, 256, 64) 128         bn2a_branch2b[0][0]              
__________________________________________________________________________________________________
res2a_branch2b_relu (Activation (None, 256, 256, 64) 0           scale2a_branch2b[0][0]           
__________________________________________________________________________________________________
res2a_branch2c (Conv2D)         (None, 256, 256, 256 16384       res2a_branch2b_relu[0][0]        
__________________________________________________________________________________________________
res2a_branch1 (Conv2D)          (None, 256, 256, 256 16384       pool1[0][0]                      
…
__________________________________________________________________________________________________
res2a (Add)                     (None, 256, 256, 256 0           scale2a_branch2c[0][0]           
                                                                 scale2a_branch1[0][0]            
__________________________________________________________________________________________________
res2a_relu (Activation)         (None, 256, 256, 256 0           res2a[0][0]                      
__________________________________________________________________________________________________
res2b_branch2a (Conv2D)         (None, 256, 256, 64) 16384       res2a_relu[0][0]                 
__________________________________________________________________________________________________
bn2b_branch2a (BatchNormalizati (None, 256, 256, 64) 256         res2b_branch2a[0][0]             
__________________________________________________________________________________________________
scale2b_branch2a (Scale)        (None, 256, 256, 64) 128         bn2b_branch2a[0][0]              
__________________________________________________________________________________________________
res2b_branch2a_relu (Activation (None, 256, 256, 64) 0           scale2b_branch2a[0][0]           
__________________________________________________________________________________________________
res2b_branch2b_zeropadding (Zer (None, 258, 258, 64) 0           res2b_branch2a_relu[0][0]        
__________________________________________________________________________________________________
res2b_branch2b (Conv2D)         (None, 256, 256, 64) 36864       res2b_branch2b_zeropadding[0][0] 
__________________________________________________________________________________________________
bn2b_branch2b (BatchNormalizati (None, 256, 256, 64) 256         res2b_branch2b[0][0]             
__________________________________________________________________________________________________
scale2b_branch2b (Scale)        (None, 256, 256, 64) 128         bn2b_branch2b[0][0]              
__________________________________________________________________________________________________
res2b_branch2b_relu (Activation (None, 256, 256, 64) 0           scale2b_branch2b[0][0]           
__________________________________________________________________________________________________
res2b_branch2c (Conv2D)         (None, 256, 256, 256 16384       res2b_branch2b_relu[0][0]        
__________________________________________________________________________________________________
bn2b_branch2c (BatchNormalizati (None, 256, 256, 256 1024        res2b_branch2c[0][0]             
…
__________________________________________________________________________________________________
res3b3 (Add)                    (None, 128, 128, 512 0           scale3b3_branch2c[0][0]          
                                                                 res3b2_relu[0][0]                
__________________________________________________________________________________________________
res3b3_relu (Activation)        (None, 128, 128, 512 0           res3b3[0][0]                     
__________________________________________________________________________________________________
res4a_branch2a (Conv2D)         (None, 64, 64, 256)  131072      res3b3_relu[0][0]                
__________________________________________________________________________________________________
bn4a_branch2a (BatchNormalizati (None, 64, 64, 256)  1024        res4a_branch2a[0][0]             
__________________________________________________________________________________________________
scale4a_branch2a (Scale)        (None, 64, 64, 256)  512         bn4a_branch2a[0][0]              
__________________________________________________________________________________________________
res4a_branch2a_relu (Activation (None, 64, 64, 256)  0           scale4a_branch2a[0][0]           
__________________________________________________________________________________________________
res4a_branch2b_zeropadding (Zer (None, 66, 66, 256)  0           res4a_branch2a_relu[0][0]        
__________________________________________________________________________________________________
res4a_branch2b (Conv2D)         (None, 64, 64, 256)  589824      res4a_branch2b_zeropadding[0][0] 
__________________________________________________________________________________________________
bn4a_branch2b (BatchNormalizati (None, 64, 64, 256)  1024        res4a_branch2b[0][0]             
__________________________________________________________________________________________________
scale4a_branch2b (Scale)        (None, 64, 64, 256)  512         bn4a_branch2b[0][0]              
__________________________________________________________________________________________________
res4a_branch2b_relu (Activation (None, 64, 64, 256)  0           scale4a_branch2b[0][0]           
__________________________________________________________________________________________________
res4a_branch2c (Conv2D)         (None, 64, 64, 1024) 262144      res4a_branch2b_relu[0][0]        
__________________________________________________________________________________________________
res4a_branch1 (Conv2D)          (None, 64, 64, 1024) 524288      res3b3_relu[0][0]                
__________________________________________________________________________________________________
bn4a_branch2c (BatchNormalizati (None, 64, 64, 1024) 4096        res4a_branch2c[0][0]             
__________________________________________________________________________________________________
bn4a_branch1 (BatchNormalizatio (None, 64, 64, 1024) 4096        res4a_branch1[0][0]              
__________________________________________________________________________________________________
scale4a_branch2c (Scale)        (None, 64, 64, 1024) 2048        bn4a_branch2c[0][0]              
__________________________________________________________________________________________________
scale4a_branch1 (Scale)         (None, 64, 64, 1024) 2048        bn4a_branch1[0][0]               
__________________________________________________________________________________________________
res4a (Add)                     (None, 64, 64, 1024) 0           scale4a_branch2c[0][0]           
                                                                 scale4a_branch1[0][0]            
__________________________________________________________________________________________________
res4a_relu (Activation)         (None, 64, 64, 1024) 0           res4a[0][0]                      
__________________________________________________________________________________________________
res4b1_branch2a (Conv2D)        (None, 64, 64, 256)  262144      res4a_relu[0][0]                 
__________________________________________________________________________________________________
bn4b1_branch2a (BatchNormalizat (None, 64, 64, 256)  1024        res4b1_branch2a[0][0]            
__________________________________________________________________________________________________
scale4b1_branch2a (Scale)       (None, 64, 64, 256)  512         bn4b1_branch2a[0][0]             
__________________________________________________________________________________________________
res4b1_branch2a_relu (Activatio (None, 64, 64, 256)  0           scale4b1_branch2a[0][0]          
__________________________________________________________________________________________________
res4b1_branch2b_zeropadding (Ze (None, 66, 66, 256)  0           res4b1_branch2a_relu[0][0]       
__________________________________________________________________________________________________
res4b1_branch2b (Conv2D)        (None, 64, 64, 256)  589824      res4b1_branch2b_zeropadding[0][0]
__________________________________________________________________________________________________
bn4b1_branch2b (BatchNormalizat (None, 64, 64, 256)  1024        res4b1_branch2b[0][0]            
__________________________________________________________________________________________________
scale4b1_branch2b (Scale)       (None, 64, 64, 256)  512         bn4b1_branch2b[0][0]             
__________________________________________________________________________________________________
res4b1_branch2b_relu (Activatio (None, 64, 64, 256)  0           scale4b1_branch2b[0][0]          
__________________________________________________________________________________________________
res4b1_branch2c (Conv2D)        (None, 64, 64, 1024) 262144      res4b1_branch2b_relu[0][0]       
__________________________________________________________________________________________________
bn4b1_branch2c (BatchNormalizat (None, 64, 64, 1024) 4096        res4b1_branch2c[0][0]            
__________________________________________________________________________________________________
scale4b1_branch2c (Scale)       (None, 64, 64, 1024) 2048        bn4b1_branch2c[0][0]             
__________________________________________________________________________________________________
res4b1 (Add)                    (None, 64, 64, 1024) 0           scale4b1_branch2c[0][0]          
                                                                 res4a_relu[0][0]                 
__________________________________________________________________________________________________
res4b1_relu (Activation)        (None, 64, 64, 1024) 0           res4b1[0][0]                     
__________________________________________________________________________________________________
res4b2_branch2a (Conv2D)        (None, 64, 64, 256)  262144      res4b1_relu[0][0]                
__________________________________________________________________________________________________
bn4b2_branch2a (BatchNormalizat (None, 64, 64, 256)  1024        res4b2_branch2a[0][0]            
__________________________________________________________________________________________________
scale4b2_branch2a (Scale)       (None, 64, 64, 256)  512         bn4b2_branch2a[0][0]             
__________________________________________________________________________________________________
res4b2_branch2a_relu (Activatio (None, 64, 64, 256)  0           scale4b2_branch2a[0][0]          
__________________________________________________________________________________________________
res4b2_branch2b_zeropadding (Ze (None, 66, 66, 256)  0           res4b2_branch2a_relu[0][0]       
__________________________________________________________________________________________________
res4b2_branch2b (Conv2D)        (None, 64, 64, 256)  589824      res4b2_branch2b_zeropadding[0][0]
__________________________________________________________________________________________________
bn4b2_branch2b (BatchNormalizat (None, 64, 64, 256)  1024        res4b2_branch2b[0][0]            
__________________________________________________________________________________________________
scale4b2_branch2b (Scale)       (None, 64, 64, 256)  512         bn4b2_branch2b[0][0]             
__________________________________________________________________________________________________
res4b2_branch2b_relu (Activatio (None, 64, 64, 256)  0           scale4b2_branch2b[0][0]          
__________________________________________________________________________________________________
res4b2_branch2c (Conv2D)        (None, 64, 64, 1024) 262144      res4b2_branch2b_relu[0][0]       
__________________________________________________________________________________________________
bn4b2_branch2c (BatchNormalizat (None, 64, 64, 1024) 4096        res4b2_branch2c[0][0]            
__________________________________________________________________________________________________
scale4b2_branch2c (Scale)       (None, 64, 64, 1024) 2048        bn4b2_branch2c[0][0]             
__________________________________________________________________________________________________
res4b2 (Add)                    (None, 64, 64, 1024) 0           scale4b2_branch2c[0][0]          
                                                                 res4b1_relu[0][0]                
__________________________________________________________________________________________________
res4b2_relu (Activation)        (None, 64, 64, 1024) 0           res4b2[0][0]                     
__________________________________________________________________________________________________
res4b3_branch2a (Conv2D)        (None, 64, 64, 256)  262144      res4b2_relu[0][0]                
__________________________________________________________________________________________________
bn4b3_branch2a (BatchNormalizat (None, 64, 64, 256)  1024        res4b3_branch2a[0][0]            
__________________________________________________________________________________________________
scale4b3_branch2a (Scale)       (None, 64, 64, 256)  512         bn4b3_branch2a[0][0]             
__________________________________________________________________________________________________
res4b3_branch2a_relu (Activatio (None, 64, 64, 256)  0           scale4b3_branch2a[0][0]          
__________________________________________________________________________________________________
res4b3_branch2b_zeropadding (Ze (None, 66, 66, 256)  0           res4b3_branch2a_relu[0][0]       
__________________________________________________________________________________________________
res4b3_branch2b (Conv2D)        (None, 64, 64, 256)  589824      res4b3_branch2b_zeropadding[0][0]
__________________________________________________________________________________________________
bn4b3_branch2b (BatchNormalizat (None, 64, 64, 256)  1024        res4b3_branch2b[0][0]            
__________________________________________________________________________________________________
scale4b3_branch2b (Scale)       (None, 64, 64, 256)  512         bn4b3_branch2b[0][0]             
__________________________________________________________________________________________________
res4b3_branch2b_relu (Activatio (None, 64, 64, 256)  0           scale4b3_branch2b[0][0]          
__________________________________________________________________________________________________
res4b3_branch2c (Conv2D)        (None, 64, 64, 1024) 262144      res4b3_branch2b_relu[0][0]       
__________________________________________________________________________________________________
bn4b3_branch2c (BatchNormalizat (None, 64, 64, 1024) 4096        res4b3_branch2c[0][0]            
__________________________________________________________________________________________________
scale4b3_branch2c (Scale)       (None, 64, 64, 1024) 2048        bn4b3_branch2c[0][0]             
__________________________________________________________________________________________________
res4b3 (Add)                    (None, 64, 64, 1024) 0           scale4b3_branch2c[0][0]          
                                                                 res4b2_relu[0][0]                
__________________________________________________________________________________________________
res4b3_relu (Activation)        (None, 64, 64, 1024) 0           res4b3[0][0]                     
__________________________________________________________________________________________________
res4b4_branch2a (Conv2D)        (None, 64, 64, 256)  262144      res4b3_relu[0][0]                
__________________________________________________________________________________________________
bn4b4_branch2a (BatchNormalizat (None, 64, 64, 256)  1024        res4b4_branch2a[0][0]            
__________________________________________________________________________________________________
scale4b4_branch2a (Scale)       (None, 64, 64, 256)  512         bn4b4_branch2a[0][0]             
__________________________________________________________________________________________________
res4b4_branch2a_relu (Activatio (None, 64, 64, 256)  0           scale4b4_branch2a[0][0]          
__________________________________________________________________________________________________
res4b4_branch2b_zeropadding (Ze (None, 66, 66, 256)  0           res4b4_branch2a_relu[0][0]       
__________________________________________________________________________________________________
res4b4_branch2b (Conv2D)        (None, 64, 64, 256)  589824      res4b4_branch2b_zeropadding[0][0]
__________________________________________________________________________________________________
bn4b4_branch2b (BatchNormalizat (None, 64, 64, 256)  1024        res4b4_branch2b[0][0]            
__________________________________________________________________________________________________
scale4b4_branch2b (Scale)       (None, 64, 64, 256)  512         bn4b4_branch2b[0][0]             
__________________________________________________________________________________________________
res4b4_branch2b_relu (Activatio (None, 64, 64, 256)  0           scale4b4_branch2b[0][0]          
__________________________________________________________________________________________________
res4b4_branch2c (Conv2D)        (None, 64, 64, 1024) 262144      res4b4_branch2b_relu[0][0]       
__________________________________________________________________________________________________
bn4b4_branch2c (BatchNormalizat (None, 64, 64, 1024) 4096        res4b4_branch2c[0][0]            
__________________________________________________________________________________________________
scale4b4_branch2c (Scale)       (None, 64, 64, 1024) 2048        bn4b4_branch2c[0][0]             
__________________________________________________________________________________________________
res4b4 (Add)                    (None, 64, 64, 1024) 0           scale4b4_branch2c[0][0]          
                                                                 res4b3_relu[0][0]                
__________________________________________________________________________________________________
res4b4_relu (Activation)        (None, 64, 64, 1024) 0           res4b4[0][0]                     
__________________________________________________________________________________________________
res4b5_branch2a (Conv2D)        (None, 64, 64, 256)  262144      res4b4_relu[0][0]                
__________________________________________________________________________________________________
bn4b5_branch2a (BatchNormalizat (None, 64, 64, 256)  1024        res4b5_branch2a[0][0]            
__________________________________________________________________________________________________
scale4b5_branch2a (Scale)       (None, 64, 64, 256)  512         bn4b5_branch2a[0][0]             
__________________________________________________________________________________________________
res4b5_branch2a_relu (Activatio (None, 64, 64, 256)  0           scale4b5_branch2a[0][0]          
__________________________________________________________________________________________________
res4b5_branch2b_zeropadding (Ze (None, 66, 66, 256)  0           res4b5_branch2a_relu[0][0]       
__________________________________________________________________________________________________
res4b5_branch2b (Conv2D)        (None, 64, 64, 256)  589824      res4b5_branch2b_zeropadding[0][0]
__________________________________________________________________________________________________
bn4b5_branch2b (BatchNormalizat (None, 64, 64, 256)  1024        res4b5_branch2b[0][0]            
__________________________________________________________________________________________________
scale4b5_branch2b (Scale)       (None, 64, 64, 256)  512         bn4b5_branch2b[0][0]             
__________________________________________________________________________________________________
res4b5_branch2b_relu (Activatio (None, 64, 64, 256)  0           scale4b5_branch2b[0][0]          
__________________________________________________________________________________________________
res4b5_branch2c (Conv2D)        (None, 64, 64, 1024) 262144      res4b5_branch2b_relu[0][0]       
__________________________________________________________________________________________________
bn4b5_branch2c (BatchNormalizat (None, 64, 64, 1024) 4096        res4b5_branch2c[0][0]            
__________________________________________________________________________________________________
scale4b5_branch2c (Scale)       (None, 64, 64, 1024) 2048        bn4b5_branch2c[0][0]             
__________________________________________________________________________________________________
res4b5 (Add)                    (None, 64, 64, 1024) 0           scale4b5_branch2c[0][0]          
                                                                 res4b4_relu[0][0]                
__________________________________________________________________________________________________
res4b5_relu (Activation)        (None, 64, 64, 1024) 0           res4b5[0][0]                     
__________________________________________________________________________________________________
res4b6_branch2a (Conv2D)        (None, 64, 64, 256)  262144      res4b5_relu[0][0]                
__________________________________________________________________________________________________
bn4b6_branch2a (BatchNormalizat (None, 64, 64, 256)  1024        res4b6_branch2a[0][0]            
__________________________________________________________________________________________________
scale4b6_branch2a (Scale)       (None, 64, 64, 256)  512         bn4b6_branch2a[0][0]             
__________________________________________________________________________________________________
res4b6_branch2a_relu (Activatio (None, 64, 64, 256)  0           scale4b6_branch2a[0][0]          
__________________________________________________________________________________________________
res4b6_branch2b_zeropadding (Ze (None, 66, 66, 256)  0           res4b6_branch2a_relu[0][0]       
__________________________________________________________________________________________________
res4b6_branch2b (Conv2D)        (None, 64, 64, 256)  589824      res4b6_branch2b_zeropadding[0][0]
__________________________________________________________________________________________________
bn4b6_branch2b (BatchNormalizat (None, 64, 64, 256)  1024        res4b6_branch2b[0][0]            
__________________________________________________________________________________________________
scale4b6_branch2b (Scale)       (None, 64, 64, 256)  512         bn4b6_branch2b[0][0]             
__________________________________________________________________________________________________
res4b6_branch2b_relu (Activatio (None, 64, 64, 256)  0           scale4b6_branch2b[0][0]          
__________________________________________________________________________________________________
res4b6_branch2c (Conv2D)        (None, 64, 64, 1024) 262144      res4b6_branch2b_relu[0][0]       
__________________________________________________________________________________________________
bn4b6_branch2c (BatchNormalizat (None, 64, 64, 1024) 4096        res4b6_branch2c[0][0]            
__________________________________________________________________________________________________
scale4b6_branch2c (Scale)       (None, 64, 64, 1024) 2048        bn4b6_branch2c[0][0]             
__________________________________________________________________________________________________
res4b6 (Add)                    (None, 64, 64, 1024) 0           scale4b6_branch2c[0][0]          
                                                                 res4b5_relu[0][0]                
__________________________________________________________________________________________________
res4b6_relu (Activation)        (None, 64, 64, 1024) 0           res4b6[0][0]                     
__________________________________________________________________________________________________
res4b7_branch2a (Conv2D)        (None, 64, 64, 256)  262144      res4b6_relu[0][0]                
__________________________________________________________________________________________________
bn4b7_branch2a (BatchNormalizat (None, 64, 64, 256)  1024        res4b7_branch2a[0][0]            
__________________________________________________________________________________________________
scale4b7_branch2a (Scale)       (None, 64, 64, 256)  512         bn4b7_branch2a[0][0]             
__________________________________________________________________________________________________
res4b7_branch2a_relu (Activatio (None, 64, 64, 256)  0           scale4b7_branch2a[0][0]          
__________________________________________________________________________________________________
res4b7_branch2b_zeropadding (Ze (None, 66, 66, 256)  0           res4b7_branch2a_relu[0][0]       
__________________________________________________________________________________________________
res4b7_branch2b (Conv2D)        (None, 64, 64, 256)  589824      res4b7_branch2b_zeropadding[0][0]
__________________________________________________________________________________________________
bn4b7_branch2b (BatchNormalizat (None, 64, 64, 256)  1024        res4b7_branch2b[0][0]            
__________________________________________________________________________________________________
scale4b7_branch2b (Scale)       (None, 64, 64, 256)  512         bn4b7_branch2b[0][0]             
__________________________________________________________________________________________________
res4b7_branch2b_relu (Activatio (None, 64, 64, 256)  0           scale4b7_branch2b[0][0]          
__________________________________________________________________________________________________
res4b7_branch2c (Conv2D)        (None, 64, 64, 1024) 262144      res4b7_branch2b_relu[0][0]       
__________________________________________________________________________________________________
bn4b7_branch2c (BatchNormalizat (None, 64, 64, 1024) 4096        res4b7_branch2c[0][0]            
__________________________________________________________________________________________________
scale4b7_branch2c (Scale)       (None, 64, 64, 1024) 2048        bn4b7_branch2c[0][0]             
__________________________________________________________________________________________________
res4b7 (Add)                    (None, 64, 64, 1024) 0           scale4b7_branch2c[0][0]          
                                                                 res4b6_relu[0][0]                
__________________________________________________________________________________________________
res4b7_relu (Activation)        (None, 64, 64, 1024) 0           res4b7[0][0]                     
__________________________________________________________________________________________________
res4b8_branch2a (Conv2D)        (None, 64, 64, 256)  262144      res4b7_relu[0][0]                
__________________________________________________________________________________________________
bn4b8_branch2a (BatchNormalizat (None, 64, 64, 256)  1024        res4b8_branch2a[0][0]            
__________________________________________________________________________________________________
scale4b8_branch2a (Scale)       (None, 64, 64, 256)  512         bn4b8_branch2a[0][0]             
__________________________________________________________________________________________________
res4b8_branch2a_relu (Activatio (None, 64, 64, 256)  0           scale4b8_branch2a[0][0]          
__________________________________________________________________________________________________
res4b8_branch2b_zeropadding (Ze (None, 66, 66, 256)  0           res4b8_branch2a_relu[0][0]       
__________________________________________________________________________________________________
res4b8_branch2b (Conv2D)        (None, 64, 64, 256)  589824      res4b8_branch2b_zeropadding[0][0]
__________________________________________________________________________________________________
bn4b8_branch2b (BatchNormalizat (None, 64, 64, 256)  1024        res4b8_branch2b[0][0]            
__________________________________________________________________________________________________
scale4b8_branch2b (Scale)       (None, 64, 64, 256)  512         bn4b8_branch2b[0][0]             
__________________________________________________________________________________________________
res4b8_branch2b_relu (Activatio (None, 64, 64, 256)  0           scale4b8_branch2b[0][0]          
__________________________________________________________________________________________________
res4b8_branch2c (Conv2D)        (None, 64, 64, 1024) 262144      res4b8_branch2b_relu[0][0]       
__________________________________________________________________________________________________
bn4b8_branch2c (BatchNormalizat (None, 64, 64, 1024) 4096        res4b8_branch2c[0][0]            
__________________________________________________________________________________________________
scale4b8_branch2c (Scale)       (None, 64, 64, 1024) 2048        bn4b8_branch2c[0][0]             
__________________________________________________________________________________________________
res4b8 (Add)                    (None, 64, 64, 1024) 0           scale4b8_branch2c[0][0]          
                                                                 res4b7_relu[0][0]                
__________________________________________________________________________________________________
res4b8_relu (Activation)        (None, 64, 64, 1024) 0           res4b8[0][0]                     
__________________________________________________________________________________________________
res4b9_branch2a (Conv2D)        (None, 64, 64, 256)  262144      res4b8_relu[0][0]                
__________________________________________________________________________________________________
bn4b9_branch2a (BatchNormalizat (None, 64, 64, 256)  1024        res4b9_branch2a[0][0]            
__________________________________________________________________________________________________
scale4b9_branch2a (Scale)       (None, 64, 64, 256)  512         bn4b9_branch2a[0][0]             
__________________________________________________________________________________________________
res4b9_branch2a_relu (Activatio (None, 64, 64, 256)  0           scale4b9_branch2a[0][0]          
__________________________________________________________________________________________________
res4b9_branch2b_zeropadding (Ze (None, 66, 66, 256)  0           res4b9_branch2a_relu[0][0]       
__________________________________________________________________________________________________
res4b9_branch2b (Conv2D)        (None, 64, 64, 256)  589824      res4b9_branch2b_zeropadding[0][0]
__________________________________________________________________________________________________
bn4b9_branch2b (BatchNormalizat (None, 64, 64, 256)  1024        res4b9_branch2b[0][0]            
__________________________________________________________________________________________________
scale4b9_branch2b (Scale)       (None, 64, 64, 256)  512         bn4b9_branch2b[0][0]             
__________________________________________________________________________________________________
res4b9_branch2b_relu (Activatio (None, 64, 64, 256)  0           scale4b9_branch2b[0][0]          
__________________________________________________________________________________________________
res4b9_branch2c (Conv2D)        (None, 64, 64, 1024) 262144      res4b9_branch2b_relu[0][0]       
__________________________________________________________________________________________________
bn4b9_branch2c (BatchNormalizat (None, 64, 64, 1024) 4096        res4b9_branch2c[0][0]            
__________________________________________________________________________________________________
scale4b9_branch2c (Scale)       (None, 64, 64, 1024) 2048        bn4b9_branch2c[0][0]             
__________________________________________________________________________________________________
res4b9 (Add)                    (None, 64, 64, 1024) 0           scale4b9_branch2c[0][0]          
                                                                 res4b8_relu[0][0]                
__________________________________________________________________________________________________
res4b9_relu (Activation)        (None, 64, 64, 1024) 0           res4b9[0][0]                     
__________________________________________________________________________________________________
res4b10_branch2a (Conv2D)       (None, 64, 64, 256)  262144      res4b9_relu[0][0]                
__________________________________________________________________________________________________
bn4b10_branch2a (BatchNormaliza (None, 64, 64, 256)  1024        res4b10_branch2a[0][0]           
__________________________________________________________________________________________________
scale4b10_branch2a (Scale)      (None, 64, 64, 256)  512         bn4b10_branch2a[0][0]            
__________________________________________________________________________________________________
res4b10_branch2a_relu (Activati (None, 64, 64, 256)  0           scale4b10_branch2a[0][0]         
__________________________________________________________________________________________________
res4b10_branch2b_zeropadding (Z (None, 66, 66, 256)  0           res4b10_branch2a_relu[0][0]      
__________________________________________________________________________________________________
res4b10_branch2b (Conv2D)       (None, 64, 64, 256)  589824      res4b10_branch2b_zeropadding[0][0
__________________________________________________________________________________________________
bn4b10_branch2b (BatchNormaliza (None, 64, 64, 256)  1024        res4b10_branch2b[0][0]           
__________________________________________________________________________________________________
scale4b10_branch2b (Scale)      (None, 64, 64, 256)  512         bn4b10_branch2b[0][0]            
__________________________________________________________________________________________________
res4b10_branch2b_relu (Activati (None, 64, 64, 256)  0           scale4b10_branch2b[0][0]         
__________________________________________________________________________________________________
res4b10_branch2c (Conv2D)       (None, 64, 64, 1024) 262144      res4b10_branch2b_relu[0][0]      
__________________________________________________________________________________________________
bn4b10_branch2c (BatchNormaliza (None, 64, 64, 1024) 4096        res4b10_branch2c[0][0]           
__________________________________________________________________________________________________
scale4b10_branch2c (Scale)      (None, 64, 64, 1024) 2048        bn4b10_branch2c[0][0]            
__________________________________________________________________________________________________
res4b10 (Add)                   (None, 64, 64, 1024) 0           scale4b10_branch2c[0][0]         
                                                                 res4b9_relu[0][0]                
__________________________________________________________________________________________________
res4b10_relu (Activation)       (None, 64, 64, 1024) 0           res4b10[0][0]                    
__________________________________________________________________________________________________
res4b11_branch2a (Conv2D)       (None, 64, 64, 256)  262144      res4b10_relu[0][0]               
__________________________________________________________________________________________________
bn4b11_branch2a (BatchNormaliza (None, 64, 64, 256)  1024        res4b11_branch2a[0][0]           
__________________________________________________________________________________________________
scale4b11_branch2a (Scale)      (None, 64, 64, 256)  512         bn4b11_branch2a[0][0]            
__________________________________________________________________________________________________
res4b11_branch2a_relu (Activati (None, 64, 64, 256)  0           scale4b11_branch2a[0][0]         
__________________________________________________________________________________________________
res4b11_branch2b_zeropadding (Z (None, 66, 66, 256)  0           res4b11_branch2a_relu[0][0]      
__________________________________________________________________________________________________
res4b11_branch2b (Conv2D)       (None, 64, 64, 256)  589824      res4b11_branch2b_zeropadding[0][0
__________________________________________________________________________________________________
bn4b11_branch2b (BatchNormaliza (None, 64, 64, 256)  1024        res4b11_branch2b[0][0]           
__________________________________________________________________________________________________
scale4b11_branch2b (Scale)      (None, 64, 64, 256)  512         bn4b11_branch2b[0][0]            
__________________________________________________________________________________________________
res4b11_branch2b_relu (Activati (None, 64, 64, 256)  0           scale4b11_branch2b[0][0]         
__________________________________________________________________________________________________
res4b11_branch2c (Conv2D)       (None, 64, 64, 1024) 262144      res4b11_branch2b_relu[0][0]      
__________________________________________________________________________________________________
bn4b11_branch2c (BatchNormaliza (None, 64, 64, 1024) 4096        res4b11_branch2c[0][0]           
__________________________________________________________________________________________________
scale4b11_branch2c (Scale)      (None, 64, 64, 1024) 2048        bn4b11_branch2c[0][0]            
__________________________________________________________________________________________________
res4b11 (Add)                   (None, 64, 64, 1024) 0           scale4b11_branch2c[0][0]         
                                                                 res4b10_relu[0][0]               
__________________________________________________________________________________________________
res4b11_relu (Activation)       (None, 64, 64, 1024) 0           res4b11[0][0]                    
__________________________________________________________________________________________________
res4b12_branch2a (Conv2D)       (None, 64, 64, 256)  262144      res4b11_relu[0][0]               
__________________________________________________________________________________________________
bn4b12_branch2a (BatchNormaliza (None, 64, 64, 256)  1024        res4b12_branch2a[0][0]           
__________________________________________________________________________________________________
scale4b12_branch2a (Scale)      (None, 64, 64, 256)  512         bn4b12_branch2a[0][0]            
__________________________________________________________________________________________________
res4b12_branch2a_relu (Activati (None, 64, 64, 256)  0           scale4b12_branch2a[0][0]         
__________________________________________________________________________________________________
res4b12_branch2b_zeropadding (Z (None, 66, 66, 256)  0           res4b12_branch2a_relu[0][0]      
__________________________________________________________________________________________________
res4b12_branch2b (Conv2D)       (None, 64, 64, 256)  589824      res4b12_branch2b_zeropadding[0][0
__________________________________________________________________________________________________
bn4b12_branch2b (BatchNormaliza (None, 64, 64, 256)  1024        res4b12_branch2b[0][0]           
__________________________________________________________________________________________________
scale4b12_branch2b (Scale)      (None, 64, 64, 256)  512         bn4b12_branch2b[0][0]            
__________________________________________________________________________________________________
res4b12_branch2b_relu (Activati (None, 64, 64, 256)  0           scale4b12_branch2b[0][0]         
__________________________________________________________________________________________________
res4b12_branch2c (Conv2D)       (None, 64, 64, 1024) 262144      res4b12_branch2b_relu[0][0]      
__________________________________________________________________________________________________
bn4b12_branch2c (BatchNormaliza (None, 64, 64, 1024) 4096        res4b12_branch2c[0][0]           
__________________________________________________________________________________________________
scale4b12_branch2c (Scale)      (None, 64, 64, 1024) 2048        bn4b12_branch2c[0][0]            
__________________________________________________________________________________________________
res4b12 (Add)                   (None, 64, 64, 1024) 0           scale4b12_branch2c[0][0]         
                                                                 res4b11_relu[0][0]               
__________________________________________________________________________________________________
res4b12_relu (Activation)       (None, 64, 64, 1024) 0           res4b12[0][0]                    
__________________________________________________________________________________________________
res4b13_branch2a (Conv2D)       (None, 64, 64, 256)  262144      res4b12_relu[0][0]               
__________________________________________________________________________________________________
bn4b13_branch2a (BatchNormaliza (None, 64, 64, 256)  1024        res4b13_branch2a[0][0]           
__________________________________________________________________________________________________
scale4b13_branch2a (Scale)      (None, 64, 64, 256)  512         bn4b13_branch2a[0][0]            
__________________________________________________________________________________________________
res4b13_branch2a_relu (Activati (None, 64, 64, 256)  0           scale4b13_branch2a[0][0]         
__________________________________________________________________________________________________
res4b13_branch2b_zeropadding (Z (None, 66, 66, 256)  0           res4b13_branch2a_relu[0][0]      
__________________________________________________________________________________________________
res4b13_branch2b (Conv2D)       (None, 64, 64, 256)  589824      res4b13_branch2b_zeropadding[0][0
__________________________________________________________________________________________________
bn4b13_branch2b (BatchNormaliza (None, 64, 64, 256)  1024        res4b13_branch2b[0][0]           
__________________________________________________________________________________________________
scale4b13_branch2b (Scale)      (None, 64, 64, 256)  512         bn4b13_branch2b[0][0]            
__________________________________________________________________________________________________
res4b13_branch2b_relu (Activati (None, 64, 64, 256)  0           scale4b13_branch2b[0][0]         
__________________________________________________________________________________________________
res4b13_branch2c (Conv2D)       (None, 64, 64, 1024) 262144      res4b13_branch2b_relu[0][0]      
__________________________________________________________________________________________________
bn4b13_branch2c (BatchNormaliza (None, 64, 64, 1024) 4096        res4b13_branch2c[0][0]           
__________________________________________________________________________________________________
scale4b13_branch2c (Scale)      (None, 64, 64, 1024) 2048        bn4b13_branch2c[0][0]            
__________________________________________________________________________________________________
res4b13 (Add)                   (None, 64, 64, 1024) 0           scale4b13_branch2c[0][0]         
                                                                 res4b12_relu[0][0]               
__________________________________________________________________________________________________
res4b13_relu (Activation)       (None, 64, 64, 1024) 0           res4b13[0][0]                    
__________________________________________________________________________________________________
res4b14_branch2a (Conv2D)       (None, 64, 64, 256)  262144      res4b13_relu[0][0]               
__________________________________________________________________________________________________
bn4b14_branch2a (BatchNormaliza (None, 64, 64, 256)  1024        res4b14_branch2a[0][0]           
__________________________________________________________________________________________________
scale4b14_branch2a (Scale)      (None, 64, 64, 256)  512         bn4b14_branch2a[0][0]            
__________________________________________________________________________________________________
res4b14_branch2a_relu (Activati (None, 64, 64, 256)  0           scale4b14_branch2a[0][0]         
__________________________________________________________________________________________________
res4b14_branch2b_zeropadding (Z (None, 66, 66, 256)  0           res4b14_branch2a_relu[0][0]      
__________________________________________________________________________________________________
res4b14_branch2b (Conv2D)       (None, 64, 64, 256)  589824      res4b14_branch2b_zeropadding[0][0
__________________________________________________________________________________________________
bn4b14_branch2b (BatchNormaliza (None, 64, 64, 256)  1024        res4b14_branch2b[0][0]           
__________________________________________________________________________________________________
scale4b14_branch2b (Scale)      (None, 64, 64, 256)  512         bn4b14_branch2b[0][0]            
__________________________________________________________________________________________________
res4b14_branch2b_relu (Activati (None, 64, 64, 256)  0           scale4b14_branch2b[0][0]         
__________________________________________________________________________________________________
res4b14_branch2c (Conv2D)       (None, 64, 64, 1024) 262144      res4b14_branch2b_relu[0][0]      
__________________________________________________________________________________________________
bn4b14_branch2c (BatchNormaliza (None, 64, 64, 1024) 4096        res4b14_branch2c[0][0]           
__________________________________________________________________________________________________
scale4b14_branch2c (Scale)      (None, 64, 64, 1024) 2048        bn4b14_branch2c[0][0]            
__________________________________________________________________________________________________
res4b14 (Add)                   (None, 64, 64, 1024) 0           scale4b14_branch2c[0][0]         
                                                                 res4b13_relu[0][0]               
__________________________________________________________________________________________________
res4b14_relu (Activation)       (None, 64, 64, 1024) 0           res4b14[0][0]                    
__________________________________________________________________________________________________
res4b15_branch2a (Conv2D)       (None, 64, 64, 256)  262144      res4b14_relu[0][0]               
__________________________________________________________________________________________________
bn4b15_branch2a (BatchNormaliza (None, 64, 64, 256)  1024        res4b15_branch2a[0][0]           
__________________________________________________________________________________________________
scale4b15_branch2a (Scale)      (None, 64, 64, 256)  512         bn4b15_branch2a[0][0]            
__________________________________________________________________________________________________
res4b15_branch2a_relu (Activati (None, 64, 64, 256)  0           scale4b15_branch2a[0][0]         
__________________________________________________________________________________________________
res4b15_branch2b_zeropadding (Z (None, 66, 66, 256)  0           res4b15_branch2a_relu[0][0]      
__________________________________________________________________________________________________
res4b15_branch2b (Conv2D)       (None, 64, 64, 256)  589824      res4b15_branch2b_zeropadding[0][0
__________________________________________________________________________________________________
bn4b15_branch2b (BatchNormaliza (None, 64, 64, 256)  1024        res4b15_branch2b[0][0]           
__________________________________________________________________________________________________
scale4b15_branch2b (Scale)      (None, 64, 64, 256)  512         bn4b15_branch2b[0][0]            
__________________________________________________________________________________________________
res4b15_branch2b_relu (Activati (None, 64, 64, 256)  0           scale4b15_branch2b[0][0]         
__________________________________________________________________________________________________
res4b15_branch2c (Conv2D)       (None, 64, 64, 1024) 262144      res4b15_branch2b_relu[0][0]      
__________________________________________________________________________________________________
bn4b15_branch2c (BatchNormaliza (None, 64, 64, 1024) 4096        res4b15_branch2c[0][0]           
__________________________________________________________________________________________________
scale4b15_branch2c (Scale)      (None, 64, 64, 1024) 2048        bn4b15_branch2c[0][0]            
__________________________________________________________________________________________________
res4b15 (Add)                   (None, 64, 64, 1024) 0           scale4b15_branch2c[0][0]         
                                                                 res4b14_relu[0][0]               
__________________________________________________________________________________________________
res4b15_relu (Activation)       (None, 64, 64, 1024) 0           res4b15[0][0]                    
__________________________________________________________________________________________________
res4b16_branch2a (Conv2D)       (None, 64, 64, 256)  262144      res4b15_relu[0][0]               
__________________________________________________________________________________________________
bn4b16_branch2a (BatchNormaliza (None, 64, 64, 256)  1024        res4b16_branch2a[0][0]           
__________________________________________________________________________________________________
scale4b16_branch2a (Scale)      (None, 64, 64, 256)  512         bn4b16_branch2a[0][0]            
__________________________________________________________________________________________________
res4b16_branch2a_relu (Activati (None, 64, 64, 256)  0           scale4b16_branch2a[0][0]         
__________________________________________________________________________________________________
res4b16_branch2b_zeropadding (Z (None, 66, 66, 256)  0           res4b16_branch2a_relu[0][0]      
__________________________________________________________________________________________________
res4b16_branch2b (Conv2D)       (None, 64, 64, 256)  589824      res4b16_branch2b_zeropadding[0][0
__________________________________________________________________________________________________
bn4b16_branch2b (BatchNormaliza (None, 64, 64, 256)  1024        res4b16_branch2b[0][0]           
__________________________________________________________________________________________________
scale4b16_branch2b (Scale)      (None, 64, 64, 256)  512         bn4b16_branch2b[0][0]            
__________________________________________________________________________________________________
res4b16_branch2b_relu (Activati (None, 64, 64, 256)  0           scale4b16_branch2b[0][0]         
__________________________________________________________________________________________________
res4b16_branch2c (Conv2D)       (None, 64, 64, 1024) 262144      res4b16_branch2b_relu[0][0]      
__________________________________________________________________________________________________
bn4b16_branch2c (BatchNormaliza (None, 64, 64, 1024) 4096        res4b16_branch2c[0][0]           
__________________________________________________________________________________________________
scale4b16_branch2c (Scale)      (None, 64, 64, 1024) 2048        bn4b16_branch2c[0][0]            
__________________________________________________________________________________________________
res4b16 (Add)                   (None, 64, 64, 1024) 0           scale4b16_branch2c[0][0]         
                                                                 res4b15_relu[0][0]               
__________________________________________________________________________________________________
res4b16_relu (Activation)       (None, 64, 64, 1024) 0           res4b16[0][0]                    
__________________________________________________________________________________________________
res4b17_branch2a (Conv2D)       (None, 64, 64, 256)  262144      res4b16_relu[0][0]               
__________________________________________________________________________________________________
bn4b17_branch2a (BatchNormaliza (None, 64, 64, 256)  1024        res4b17_branch2a[0][0]           
__________________________________________________________________________________________________
scale4b17_branch2a (Scale)      (None, 64, 64, 256)  512         bn4b17_branch2a[0][0]            
__________________________________________________________________________________________________
res4b17_branch2a_relu (Activati (None, 64, 64, 256)  0           scale4b17_branch2a[0][0]         
__________________________________________________________________________________________________
res4b17_branch2b_zeropadding (Z (None, 66, 66, 256)  0           res4b17_branch2a_relu[0][0]      
__________________________________________________________________________________________________
res4b17_branch2b (Conv2D)       (None, 64, 64, 256)  589824      res4b17_branch2b_zeropadding[0][0
__________________________________________________________________________________________________
bn4b17_branch2b (BatchNormaliza (None, 64, 64, 256)  1024        res4b17_branch2b[0][0]           
__________________________________________________________________________________________________
scale4b17_branch2b (Scale)      (None, 64, 64, 256)  512         bn4b17_branch2b[0][0]            
__________________________________________________________________________________________________
res4b17_branch2b_relu (Activati (None, 64, 64, 256)  0           scale4b17_branch2b[0][0]         
__________________________________________________________________________________________________
res4b17_branch2c (Conv2D)       (None, 64, 64, 1024) 262144      res4b17_branch2b_relu[0][0]      
__________________________________________________________________________________________________
bn4b17_branch2c (BatchNormaliza (None, 64, 64, 1024) 4096        res4b17_branch2c[0][0]           
__________________________________________________________________________________________________
scale4b17_branch2c (Scale)      (None, 64, 64, 1024) 2048        bn4b17_branch2c[0][0]            
__________________________________________________________________________________________________
res4b17 (Add)                   (None, 64, 64, 1024) 0           scale4b17_branch2c[0][0]         
                                                                 res4b16_relu[0][0]               
__________________________________________________________________________________________________
res4b17_relu (Activation)       (None, 64, 64, 1024) 0           res4b17[0][0]                    
__________________________________________________________________________________________________
res4b18_branch2a (Conv2D)       (None, 64, 64, 256)  262144      res4b17_relu[0][0]               
__________________________________________________________________________________________________
bn4b18_branch2a (BatchNormaliza (None, 64, 64, 256)  1024        res4b18_branch2a[0][0]           
__________________________________________________________________________________________________
scale4b18_branch2a (Scale)      (None, 64, 64, 256)  512         bn4b18_branch2a[0][0]            
__________________________________________________________________________________________________
res4b18_branch2a_relu (Activati (None, 64, 64, 256)  0           scale4b18_branch2a[0][0]         
__________________________________________________________________________________________________
res4b18_branch2b_zeropadding (Z (None, 66, 66, 256)  0           res4b18_branch2a_relu[0][0]      
__________________________________________________________________________________________________
res4b18_branch2b (Conv2D)       (None, 64, 64, 256)  589824      res4b18_branch2b_zeropadding[0][0
__________________________________________________________________________________________________
bn4b18_branch2b (BatchNormaliza (None, 64, 64, 256)  1024        res4b18_branch2b[0][0]           
__________________________________________________________________________________________________
scale4b18_branch2b (Scale)      (None, 64, 64, 256)  512         bn4b18_branch2b[0][0]            
__________________________________________________________________________________________________
res4b18_branch2b_relu (Activati (None, 64, 64, 256)  0           scale4b18_branch2b[0][0]         
__________________________________________________________________________________________________
res4b18_branch2c (Conv2D)       (None, 64, 64, 1024) 262144      res4b18_branch2b_relu[0][0]      
__________________________________________________________________________________________________
bn4b18_branch2c (BatchNormaliza (None, 64, 64, 1024) 4096        res4b18_branch2c[0][0]           
__________________________________________________________________________________________________
scale4b18_branch2c (Scale)      (None, 64, 64, 1024) 2048        bn4b18_branch2c[0][0]            
__________________________________________________________________________________________________
res4b18 (Add)                   (None, 64, 64, 1024) 0           scale4b18_branch2c[0][0]         
                                                                 res4b17_relu[0][0]               
__________________________________________________________________________________________________
res4b18_relu (Activation)       (None, 64, 64, 1024) 0           res4b18[0][0]                    
__________________________________________________________________________________________________
res4b19_branch2a (Conv2D)       (None, 64, 64, 256)  262144      res4b18_relu[0][0]               
__________________________________________________________________________________________________
bn4b19_branch2a (BatchNormaliza (None, 64, 64, 256)  1024        res4b19_branch2a[0][0]           
__________________________________________________________________________________________________
scale4b19_branch2a (Scale)      (None, 64, 64, 256)  512         bn4b19_branch2a[0][0]            
__________________________________________________________________________________________________
res4b19_branch2a_relu (Activati (None, 64, 64, 256)  0           scale4b19_branch2a[0][0]         
__________________________________________________________________________________________________
res4b19_branch2b_zeropadding (Z (None, 66, 66, 256)  0           res4b19_branch2a_relu[0][0]      
__________________________________________________________________________________________________
res4b19_branch2b (Conv2D)       (None, 64, 64, 256)  589824      res4b19_branch2b_zeropadding[0][0
__________________________________________________________________________________________________
bn4b19_branch2b (BatchNormaliza (None, 64, 64, 256)  1024        res4b19_branch2b[0][0]           
__________________________________________________________________________________________________
scale4b19_branch2b (Scale)      (None, 64, 64, 256)  512         bn4b19_branch2b[0][0]            
__________________________________________________________________________________________________
res4b19_branch2b_relu (Activati (None, 64, 64, 256)  0           scale4b19_branch2b[0][0]         
__________________________________________________________________________________________________
res4b19_branch2c (Conv2D)       (None, 64, 64, 1024) 262144      res4b19_branch2b_relu[0][0]      
__________________________________________________________________________________________________
bn4b19_branch2c (BatchNormaliza (None, 64, 64, 1024) 4096        res4b19_branch2c[0][0]           
__________________________________________________________________________________________________
scale4b19_branch2c (Scale)      (None, 64, 64, 1024) 2048        bn4b19_branch2c[0][0]            
__________________________________________________________________________________________________
res4b19 (Add)                   (None, 64, 64, 1024) 0           scale4b19_branch2c[0][0]         
                                                                 res4b18_relu[0][0]               
__________________________________________________________________________________________________
res4b19_relu (Activation)       (None, 64, 64, 1024) 0           res4b19[0][0]                    
__________________________________________________________________________________________________
res4b20_branch2a (Conv2D)       (None, 64, 64, 256)  262144      res4b19_relu[0][0]               
__________________________________________________________________________________________________
bn4b20_branch2a (BatchNormaliza (None, 64, 64, 256)  1024        res4b20_branch2a[0][0]           
__________________________________________________________________________________________________
scale4b20_branch2a (Scale)      (None, 64, 64, 256)  512         bn4b20_branch2a[0][0]            
__________________________________________________________________________________________________
res4b20_branch2a_relu (Activati (None, 64, 64, 256)  0           scale4b20_branch2a[0][0]         
__________________________________________________________________________________________________
res4b20_branch2b_zeropadding (Z (None, 66, 66, 256)  0           res4b20_branch2a_relu[0][0]      
__________________________________________________________________________________________________
res4b20_branch2b (Conv2D)       (None, 64, 64, 256)  589824      res4b20_branch2b_zeropadding[0][0
__________________________________________________________________________________________________
bn4b20_branch2b (BatchNormaliza (None, 64, 64, 256)  1024        res4b20_branch2b[0][0]           
__________________________________________________________________________________________________
scale4b20_branch2b (Scale)      (None, 64, 64, 256)  512         bn4b20_branch2b[0][0]            
__________________________________________________________________________________________________
res4b20_branch2b_relu (Activati (None, 64, 64, 256)  0           scale4b20_branch2b[0][0]         
__________________________________________________________________________________________________
res4b20_branch2c (Conv2D)       (None, 64, 64, 1024) 262144      res4b20_branch2b_relu[0][0]      
__________________________________________________________________________________________________
bn4b20_branch2c (BatchNormaliza (None, 64, 64, 1024) 4096        res4b20_branch2c[0][0]           
__________________________________________________________________________________________________
scale4b20_branch2c (Scale)      (None, 64, 64, 1024) 2048        bn4b20_branch2c[0][0]            
__________________________________________________________________________________________________
res4b20 (Add)                   (None, 64, 64, 1024) 0           scale4b20_branch2c[0][0]         
                                                                 res4b19_relu[0][0]               
__________________________________________________________________________________________________
res4b20_relu (Activation)       (None, 64, 64, 1024) 0           res4b20[0][0]                    
__________________________________________________________________________________________________
res4b21_branch2a (Conv2D)       (None, 64, 64, 256)  262144      res4b20_relu[0][0]               
__________________________________________________________________________________________________
bn4b21_branch2a (BatchNormaliza (None, 64, 64, 256)  1024        res4b21_branch2a[0][0]           
__________________________________________________________________________________________________
scale4b21_branch2a (Scale)      (None, 64, 64, 256)  512         bn4b21_branch2a[0][0]            
__________________________________________________________________________________________________
res4b21_branch2a_relu (Activati (None, 64, 64, 256)  0           scale4b21_branch2a[0][0]         
__________________________________________________________________________________________________
res4b21_branch2b_zeropadding (Z (None, 66, 66, 256)  0           res4b21_branch2a_relu[0][0]      
__________________________________________________________________________________________________
res4b21_branch2b (Conv2D)       (None, 64, 64, 256)  589824      res4b21_branch2b_zeropadding[0][0
__________________________________________________________________________________________________
bn4b21_branch2b (BatchNormaliza (None, 64, 64, 256)  1024        res4b21_branch2b[0][0]           
__________________________________________________________________________________________________
scale4b21_branch2b (Scale)      (None, 64, 64, 256)  512         bn4b21_branch2b[0][0]            
__________________________________________________________________________________________________
res4b21_branch2b_relu (Activati (None, 64, 64, 256)  0           scale4b21_branch2b[0][0]         
__________________________________________________________________________________________________
res4b21_branch2c (Conv2D)       (None, 64, 64, 1024) 262144      res4b21_branch2b_relu[0][0]      
__________________________________________________________________________________________________
bn4b21_branch2c (BatchNormaliza (None, 64, 64, 1024) 4096        res4b21_branch2c[0][0]           
__________________________________________________________________________________________________
scale4b21_branch2c (Scale)      (None, 64, 64, 1024) 2048        bn4b21_branch2c[0][0]            
__________________________________________________________________________________________________
res4b21 (Add)                   (None, 64, 64, 1024) 0           scale4b21_branch2c[0][0]         
                                                                 res4b20_relu[0][0]               
__________________________________________________________________________________________________
res4b21_relu (Activation)       (None, 64, 64, 1024) 0           res4b21[0][0]                    
__________________________________________________________________________________________________
res4b22_branch2a (Conv2D)       (None, 64, 64, 256)  262144      res4b21_relu[0][0]               
__________________________________________________________________________________________________
bn4b22_branch2a (BatchNormaliza (None, 64, 64, 256)  1024        res4b22_branch2a[0][0]           
__________________________________________________________________________________________________
scale4b22_branch2a (Scale)      (None, 64, 64, 256)  512         bn4b22_branch2a[0][0]            
__________________________________________________________________________________________________
res4b22_branch2a_relu (Activati (None, 64, 64, 256)  0           scale4b22_branch2a[0][0]         
__________________________________________________________________________________________________
res4b22_branch2b_zeropadding (Z (None, 66, 66, 256)  0           res4b22_branch2a_relu[0][0]      
__________________________________________________________________________________________________
res4b22_branch2b (Conv2D)       (None, 64, 64, 256)  589824      res4b22_branch2b_zeropadding[0][0
__________________________________________________________________________________________________
bn4b22_branch2b (BatchNormaliza (None, 64, 64, 256)  1024        res4b22_branch2b[0][0]           
__________________________________________________________________________________________________
scale4b22_branch2b (Scale)      (None, 64, 64, 256)  512         bn4b22_branch2b[0][0]            
__________________________________________________________________________________________________
res4b22_branch2b_relu (Activati (None, 64, 64, 256)  0           scale4b22_branch2b[0][0]         
__________________________________________________________________________________________________
res4b22_branch2c (Conv2D)       (None, 64, 64, 1024) 262144      res4b22_branch2b_relu[0][0]      
__________________________________________________________________________________________________
bn4b22_branch2c (BatchNormaliza (None, 64, 64, 1024) 4096        res4b22_branch2c[0][0]           
__________________________________________________________________________________________________
scale4b22_branch2c (Scale)      (None, 64, 64, 1024) 2048        bn4b22_branch2c[0][0]            
__________________________________________________________________________________________________
res4b22 (Add)                   (None, 64, 64, 1024) 0           scale4b22_branch2c[0][0]         
                                                                 res4b21_relu[0][0]               
__________________________________________________________________________________________________
res4b22_relu (Activation)       (None, 64, 64, 1024) 0           res4b22[0][0]                    
__________________________________________________________________________________________________
res5a_branch2a (Conv2D)         (None, 32, 32, 512)  524288      res4b22_relu[0][0]               
__________________________________________________________________________________________________
bn5a_branch2a (BatchNormalizati (None, 32, 32, 512)  2048        res5a_branch2a[0][0]             
__________________________________________________________________________________________________
scale5a_branch2a (Scale)        (None, 32, 32, 512)  1024        bn5a_branch2a[0][0]              
__________________________________________________________________________________________________
res5a_branch2a_relu (Activation (None, 32, 32, 512)  0           scale5a_branch2a[0][0]           
__________________________________________________________________________________________________
res5a_branch2b_zeropadding (Zer (None, 34, 34, 512)  0           res5a_branch2a_relu[0][0]        
__________________________________________________________________________________________________
res5a_branch2b (Conv2D)         (None, 32, 32, 512)  2359296     res5a_branch2b_zeropadding[0][0] 
__________________________________________________________________________________________________
bn5a_branch2b (BatchNormalizati (None, 32, 32, 512)  2048        res5a_branch2b[0][0]             
__________________________________________________________________________________________________
scale5a_branch2b (Scale)        (None, 32, 32, 512)  1024        bn5a_branch2b[0][0]              
__________________________________________________________________________________________________
res5a_branch2b_relu (Activation (None, 32, 32, 512)  0           scale5a_branch2b[0][0]           
__________________________________________________________________________________________________
res5a_branch2c (Conv2D)         (None, 32, 32, 2048) 1048576     res5a_branch2b_relu[0][0]        
__________________________________________________________________________________________________
res5a_branch1 (Conv2D)          (None, 32, 32, 2048) 2097152     res4b22_relu[0][0]               
__________________________________________________________________________________________________
bn5a_branch2c (BatchNormalizati (None, 32, 32, 2048) 8192        res5a_branch2c[0][0]             
__________________________________________________________________________________________________
bn5a_branch1 (BatchNormalizatio (None, 32, 32, 2048) 8192        res5a_branch1[0][0]              
__________________________________________________________________________________________________
scale5a_branch2c (Scale)        (None, 32, 32, 2048) 4096        bn5a_branch2c[0][0]              
__________________________________________________________________________________________________
scale5a_branch1 (Scale)         (None, 32, 32, 2048) 4096        bn5a_branch1[0][0]               
__________________________________________________________________________________________________
res5a (Add)                     (None, 32, 32, 2048) 0           scale5a_branch2c[0][0]           
                                                                 scale5a_branch1[0][0]            
__________________________________________________________________________________________________
res5a_relu (Activation)         (None, 32, 32, 2048) 0           res5a[0][0]                      
__________________________________________________________________________________________________
res5b_branch2a (Conv2D)         (None, 32, 32, 512)  1048576     res5a_relu[0][0]                 
__________________________________________________________________________________________________
bn5b_branch2a (BatchNormalizati (None, 32, 32, 512)  2048        res5b_branch2a[0][0]             
__________________________________________________________________________________________________
scale5b_branch2a (Scale)        (None, 32, 32, 512)  1024        bn5b_branch2a[0][0]              
__________________________________________________________________________________________________
res5b_branch2a_relu (Activation (None, 32, 32, 512)  0           scale5b_branch2a[0][0]           
__________________________________________________________________________________________________
res5b_branch2b_zeropadding (Zer (None, 34, 34, 512)  0           res5b_branch2a_relu[0][0]        
__________________________________________________________________________________________________
res5b_branch2b (Conv2D)         (None, 32, 32, 512)  2359296     res5b_branch2b_zeropadding[0][0] 
__________________________________________________________________________________________________
bn5b_branch2b (BatchNormalizati (None, 32, 32, 512)  2048        res5b_branch2b[0][0]             
__________________________________________________________________________________________________
scale5b_branch2b (Scale)        (None, 32, 32, 512)  1024        bn5b_branch2b[0][0]              
__________________________________________________________________________________________________
res5b_branch2b_relu (Activation (None, 32, 32, 512)  0           scale5b_branch2b[0][0]           
__________________________________________________________________________________________________
res5b_branch2c (Conv2D)         (None, 32, 32, 2048) 1048576     res5b_branch2b_relu[0][0]        
__________________________________________________________________________________________________
bn5b_branch2c (BatchNormalizati (None, 32, 32, 2048) 8192        res5b_branch2c[0][0]             
__________________________________________________________________________________________________
scale5b_branch2c (Scale)        (None, 32, 32, 2048) 4096        bn5b_branch2c[0][0]              
__________________________________________________________________________________________________
res5b (Add)                     (None, 32, 32, 2048) 0           scale5b_branch2c[0][0]           
                                                                 res5a_relu[0][0]                 
__________________________________________________________________________________________________
res5b_relu (Activation)         (None, 32, 32, 2048) 0           res5b[0][0]                      
__________________________________________________________________________________________________
res5c_branch2a (Conv2D)         (None, 32, 32, 512)  1048576     res5b_relu[0][0]                 
__________________________________________________________________________________________________
bn5c_branch2a (BatchNormalizati (None, 32, 32, 512)  2048        res5c_branch2a[0][0]             
__________________________________________________________________________________________________
scale5c_branch2a (Scale)        (None, 32, 32, 512)  1024        bn5c_branch2a[0][0]              
__________________________________________________________________________________________________
res5c_branch2a_relu (Activation (None, 32, 32, 512)  0           scale5c_branch2a[0][0]           
__________________________________________________________________________________________________
res5c_branch2b_zeropadding (Zer (None, 34, 34, 512)  0           res5c_branch2a_relu[0][0]        
__________________________________________________________________________________________________
res5c_branch2b (Conv2D)         (None, 32, 32, 512)  2359296     res5c_branch2b_zeropadding[0][0] 
__________________________________________________________________________________________________
bn5c_branch2b (BatchNormalizati (None, 32, 32, 512)  2048        res5c_branch2b[0][0]             
__________________________________________________________________________________________________
scale5c_branch2b (Scale)        (None, 32, 32, 512)  1024        bn5c_branch2b[0][0]              
__________________________________________________________________________________________________
res5c_branch2b_relu (Activation (None, 32, 32, 512)  0           scale5c_branch2b[0][0]           
__________________________________________________________________________________________________
res5c_branch2c (Conv2D)         (None, 32, 32, 2048) 1048576     res5c_branch2b_relu[0][0]        
__________________________________________________________________________________________________
bn5c_branch2c (BatchNormalizati (None, 32, 32, 2048) 8192        res5c_branch2c[0][0]             
__________________________________________________________________________________________________
scale5c_branch2c (Scale)        (None, 32, 32, 2048) 4096        bn5c_branch2c[0][0]              
__________________________________________________________________________________________________
res5c (Add)                     (None, 32, 32, 2048) 0           scale5c_branch2c[0][0]           
                                                                 res5b_relu[0][0]                 
__________________________________________________________________________________________________
res5c_relu (Activation)         (None, 32, 32, 2048) 0           res5c[0][0]                      
__________________________________________________________________________________________________
conv2d_145 (Conv2D)             (None, 32, 32, 512)  1049088     res5c_relu[0][0]                 
__________________________________________________________________________________________________
re_lu_97 (ReLU)                 (None, 32, 32, 512)  0           conv2d_145[0][0]                 
__________________________________________________________________________________________________
conv2d_149 (Conv2D)             (None, 32, 32, 512)  2359808     re_lu_97[0][0]                   
__________________________________________________________________________________________________
re_lu_98 (ReLU)                 (None, 32, 32, 512)  0           conv2d_149[0][0]                 
__________________________________________________________________________________________________
conv2d_150 (Conv2D)             (None, 32, 32, 512)  2359808     re_lu_98[0][0]                   
__________________________________________________________________________________________________
add_76 (Add)                    (None, 32, 32, 512)  0           conv2d_150[0][0]                 
                                                                 conv2d_145[0][0]                 
__________________________________________________________________________________________________
re_lu_99 (ReLU)                 (None, 32, 32, 512)  0           add_76[0][0]                     
__________________________________________________________________________________________________
conv2d_151 (Conv2D)             (None, 32, 32, 512)  2359808     re_lu_99[0][0]                   
__________________________________________________________________________________________________
re_lu_100 (ReLU)                (None, 32, 32, 512)  0           conv2d_151[0][0]                 
__________________________________________________________________________________________________
conv2d_152 (Conv2D)             (None, 32, 32, 512)  2359808     re_lu_100[0][0]                  
__________________________________________________________________________________________________
add_77 (Add)                    (None, 32, 32, 512)  0           conv2d_152[0][0]                 
                                                                 add_76[0][0]                     
__________________________________________________________________________________________________
conv2d_153 (Conv2D)             (None, 32, 32, 512)  2359808     add_77[0][0]                     
__________________________________________________________________________________________________
re_lu_101 (ReLU)                (None, 32, 32, 512)  0           conv2d_153[0][0]                 
__________________________________________________________________________________________________
conv2d_146 (Conv2D)             (None, 64, 64, 256)  262400      res4b22_relu[0][0]               
__________________________________________________________________________________________________
conv2d_154 (Conv2D)             (None, 32, 32, 512)  2359808     re_lu_101[0][0]                  
__________________________________________________________________________________________________
re_lu_104 (ReLU)                (None, 64, 64, 256)  0           conv2d_146[0][0]                 
__________________________________________________________________________________________________
max_pooling2d_26 (MaxPooling2D) (None, 32, 32, 512)  0           conv2d_154[0][0]                 
__________________________________________________________________________________________________
conv2d_158 (Conv2D)             (None, 64, 64, 256)  590080      re_lu_104[0][0]                  
__________________________________________________________________________________________________
conv2d_155 (Conv2D)             (None, 32, 32, 512)  2359808     max_pooling2d_26[0][0]           
__________________________________________________________________________________________________
add_78 (Add)                    (None, 32, 32, 512)  0           conv2d_154[0][0]                 
                                                                 re_lu_101[0][0]                  
__________________________________________________________________________________________________
re_lu_105 (ReLU)                (None, 64, 64, 256)  0           conv2d_158[0][0]                 
__________________________________________________________________________________________________
add_79 (Add)                    (None, 32, 32, 512)  0           conv2d_155[0][0]                 
                                                                 add_78[0][0]                     
__________________________________________________________________________________________________
conv2d_159 (Conv2D)             (None, 64, 64, 256)  590080      re_lu_105[0][0]                  
__________________________________________________________________________________________________
re_lu_102 (ReLU)                (None, 32, 32, 512)  0           add_79[0][0]                     
__________________________________________________________________________________________________
add_81 (Add)                    (None, 64, 64, 256)  0           conv2d_159[0][0]                 
                                                                 conv2d_146[0][0]                 
__________________________________________________________________________________________________
conv2d_156 (Conv2D)             (None, 32, 32, 512)  2359808     re_lu_102[0][0]                  
__________________________________________________________________________________________________
re_lu_106 (ReLU)                (None, 64, 64, 256)  0           add_81[0][0]                     
__________________________________________________________________________________________________
re_lu_103 (ReLU)                (None, 32, 32, 512)  0           conv2d_156[0][0]                 
__________________________________________________________________________________________________
conv2d_160 (Conv2D)             (None, 64, 64, 256)  590080      re_lu_106[0][0]                  
__________________________________________________________________________________________________
conv2d_157 (Conv2D)             (None, 32, 32, 512)  2359808     re_lu_103[0][0]                  
__________________________________________________________________________________________________
re_lu_107 (ReLU)                (None, 64, 64, 256)  0           conv2d_160[0][0]                 
__________________________________________________________________________________________________
add_80 (Add)                    (None, 32, 32, 512)  0           conv2d_157[0][0]                 
                                                                 add_79[0][0]                     
__________________________________________________________________________________________________
conv2d_161 (Conv2D)             (None, 64, 64, 256)  590080      re_lu_107[0][0]                  
__________________________________________________________________________________________________
conv2d_162 (Conv2D)             (None, 32, 32, 256)  1179904     add_80[0][0]                     
__________________________________________________________________________________________________
add_82 (Add)                    (None, 64, 64, 256)  0           conv2d_161[0][0]                 
                                                                 add_81[0][0]                     
__________________________________________________________________________________________________
upsampling_13 (Upsampling)      (None, 64, 64, 256)  0           conv2d_162[0][0]                 
__________________________________________________________________________________________________
conv2d_163 (Conv2D)             (None, 64, 64, 256)  590080      add_82[0][0]                     
__________________________________________________________________________________________________
add_83 (Add)                    (None, 64, 64, 256)  0           upsampling_13[0][0]              
                                                                 conv2d_163[0][0]                 
__________________________________________________________________________________________________
re_lu_108 (ReLU)                (None, 64, 64, 256)  0           add_83[0][0]                     
__________________________________________________________________________________________________
conv2d_147 (Conv2D)             (None, 128, 128, 256 131328      res3b3_relu[0][0]                
__________________________________________________________________________________________________
conv2d_164 (Conv2D)             (None, 64, 64, 256)  590080      re_lu_108[0][0]                  
__________________________________________________________________________________________________
re_lu_111 (ReLU)                (None, 128, 128, 256 0           conv2d_147[0][0]                 
__________________________________________________________________________________________________
max_pooling2d_28 (MaxPooling2D) (None, 64, 64, 256)  0           conv2d_164[0][0]                 
__________________________________________________________________________________________________
conv2d_168 (Conv2D)             (None, 128, 128, 256 590080      re_lu_111[0][0]                  
__________________________________________________________________________________________________
conv2d_165 (Conv2D)             (None, 64, 64, 256)  590080      max_pooling2d_28[0][0]           
__________________________________________________________________________________________________
add_84 (Add)                    (None, 64, 64, 256)  0           conv2d_164[0][0]                 
                                                                 re_lu_108[0][0]                  
__________________________________________________________________________________________________
re_lu_112 (ReLU)                (None, 128, 128, 256 0           conv2d_168[0][0]                 
__________________________________________________________________________________________________
add_85 (Add)                    (None, 64, 64, 256)  0           conv2d_165[0][0]                 
                                                                 add_84[0][0]                     
__________________________________________________________________________________________________
conv2d_169 (Conv2D)             (None, 128, 128, 256 590080      re_lu_112[0][0]                  
__________________________________________________________________________________________________
re_lu_109 (ReLU)                (None, 64, 64, 256)  0           add_85[0][0]                     
__________________________________________________________________________________________________
add_87 (Add)                    (None, 128, 128, 256 0           conv2d_169[0][0]                 
                                                                 conv2d_147[0][0]                 
__________________________________________________________________________________________________
conv2d_166 (Conv2D)             (None, 64, 64, 256)  590080      re_lu_109[0][0]                  
__________________________________________________________________________________________________
re_lu_113 (ReLU)                (None, 128, 128, 256 0           add_87[0][0]                     
__________________________________________________________________________________________________
re_lu_110 (ReLU)                (None, 64, 64, 256)  0           conv2d_166[0][0]                 
__________________________________________________________________________________________________
conv2d_170 (Conv2D)             (None, 128, 128, 256 590080      re_lu_113[0][0]                  
__________________________________________________________________________________________________
conv2d_167 (Conv2D)             (None, 64, 64, 256)  590080      re_lu_110[0][0]                  
__________________________________________________________________________________________________
re_lu_114 (ReLU)                (None, 128, 128, 256 0           conv2d_170[0][0]                 
__________________________________________________________________________________________________
add_86 (Add)                    (None, 64, 64, 256)  0           conv2d_167[0][0]                 
                                                                 add_85[0][0]                     
__________________________________________________________________________________________________
conv2d_171 (Conv2D)             (None, 128, 128, 256 590080      re_lu_114[0][0]                  
__________________________________________________________________________________________________
conv2d_172 (Conv2D)             (None, 64, 64, 256)  590080      add_86[0][0]                     
__________________________________________________________________________________________________
add_88 (Add)                    (None, 128, 128, 256 0           conv2d_171[0][0]                 
                                                                 add_87[0][0]                     
__________________________________________________________________________________________________
…
