__________________________________________________________________________________________________
Layer (type)                    Output Shape         Param #     Connected to                     
==================================================================================================
data (InputLayer)               (None, 768, 768, 3)  0                                            
__________________________________________________________________________________________________
conv1_zeropadding (ZeroPadding2 (None, 774, 774, 3)  0           data[0][0]                       
__________________________________________________________________________________________________
conv1 (Conv2D)                  (None, 384, 384, 64) 9408        conv1_zeropadding[0][0]          
__________________________________________________________________________________________________
bn_conv1 (BatchNormalization)   (None, 384, 384, 64) 256         conv1[0][0]                      
__________________________________________________________________________________________________
scale_conv1 (Scale)             (None, 384, 384, 64) 128         bn_conv1[0][0]                   
__________________________________________________________________________________________________
conv1_relu (Activation)         (None, 384, 384, 64) 0           scale_conv1[0][0]                
__________________________________________________________________________________________________
pool1 (MaxPooling2D)            (None, 192, 192, 64) 0           conv1_relu[0][0]                 
__________________________________________________________________________________________________
res2a_branch2a (Conv2D)         (None, 192, 192, 64) 4096        pool1[0][0]                      
__________________________________________________________________________________________________
bn2a_branch2a (BatchNormalizati (None, 192, 192, 64) 256         res2a_branch2a[0][0]             
__________________________________________________________________________________________________
scale2a_branch2a (Scale)        (None, 192, 192, 64) 128         bn2a_branch2a[0][0]              
__________________________________________________________________________________________________
res2a_branch2a_relu (Activation (None, 192, 192, 64) 0           scale2a_branch2a[0][0]           
__________________________________________________________________________________________________
res2a_branch2b_zeropadding (Zer (None, 194, 194, 64) 0           res2a_branch2a_relu[0][0]        
__________________________________________________________________________________________________
res2a_branch2b (Conv2D)         (None, 192, 192, 64) 36864       res2a_branch2b_zeropadding[0][0] 
__________________________________________________________________________________________________
bn2a_branch2b (BatchNormalizati (None, 192, 192, 64) 256         res2a_branch2b[0][0]             
__________________________________________________________________________________________________
scale2a_branch2b (Scale)        (None, 192, 192, 64) 128         bn2a_branch2b[0][0]              
__________________________________________________________________________________________________
res2a_branch2b_relu (Activation (None, 192, 192, 64) 0           scale2a_branch2b[0][0]           
__________________________________________________________________________________________________
res2a_branch2c (Conv2D)         (None, 192, 192, 256 16384       res2a_branch2b_relu[0][0]        
__________________________________________________________________________________________________
res2a_branch1 (Conv2D)          (None, 192, 192, 256 16384       pool1[0][0]                      
…
__________________________________________________________________________________________________
res2a (Add)                     (None, 192, 192, 256 0           scale2a_branch2c[0][0]           
                                                                 scale2a_branch1[0][0]            
__________________________________________________________________________________________________
res2a_relu (Activation)         (None, 192, 192, 256 0           res2a[0][0]                      
__________________________________________________________________________________________________
res2b_branch2a (Conv2D)         (None, 192, 192, 64) 16384       res2a_relu[0][0]                 
__________________________________________________________________________________________________
bn2b_branch2a (BatchNormalizati (None, 192, 192, 64) 256         res2b_branch2a[0][0]             
__________________________________________________________________________________________________
scale2b_branch2a (Scale)        (None, 192, 192, 64) 128         bn2b_branch2a[0][0]              
__________________________________________________________________________________________________
res2b_branch2a_relu (Activation (None, 192, 192, 64) 0           scale2b_branch2a[0][0]           
__________________________________________________________________________________________________
res2b_branch2b_zeropadding (Zer (None, 194, 194, 64) 0           res2b_branch2a_relu[0][0]        
__________________________________________________________________________________________________
res2b_branch2b (Conv2D)         (None, 192, 192, 64) 36864       res2b_branch2b_zeropadding[0][0] 
__________________________________________________________________________________________________
bn2b_branch2b (BatchNormalizati (None, 192, 192, 64) 256         res2b_branch2b[0][0]             
__________________________________________________________________________________________________
scale2b_branch2b (Scale)        (None, 192, 192, 64) 128         bn2b_branch2b[0][0]              
__________________________________________________________________________________________________
res2b_branch2b_relu (Activation (None, 192, 192, 64) 0           scale2b_branch2b[0][0]           
__________________________________________________________________________________________________
res2b_branch2c (Conv2D)         (None, 192, 192, 256 16384       res2b_branch2b_relu[0][0]        
__________________________________________________________________________________________________
bn2b_branch2c (BatchNormalizati (None, 192, 192, 256 1024        res2b_branch2c[0][0]             
…
__________________________________________________________________________________________________
res2c (Add)                     (None, 192, 192, 256 0           scale2c_branch2c[0][0]           
                                                                 res2b_relu[0][0]                 
__________________________________________________________________________________________________
res2c_relu (Activation)         (None, 192, 192, 256 0           res2c[0][0]                      
__________________________________________________________________________________________________
res3a_branch2a (Conv2D)         (None, 96, 96, 128)  32768       res2c_relu[0][0]                 
__________________________________________________________________________________________________
bn3a_branch2a (BatchNormalizati (None, 96, 96, 128)  512         res3a_branch2a[0][0]             
__________________________________________________________________________________________________
scale3a_branch2a (Scale)        (None, 96, 96, 128)  256         bn3a_branch2a[0][0]              
__________________________________________________________________________________________________
res3a_branch2a_relu (Activation (None, 96, 96, 128)  0           scale3a_branch2a[0][0]           
__________________________________________________________________________________________________
res3a_branch2b_zeropadding (Zer (None, 98, 98, 128)  0           res3a_branch2a_relu[0][0]        
__________________________________________________________________________________________________
res3a_branch2b (Conv2D)         (None, 96, 96, 128)  147456      res3a_branch2b_zeropadding[0][0] 
__________________________________________________________________________________________________
bn3a_branch2b (BatchNormalizati (None, 96, 96, 128)  512         res3a_branch2b[0][0]             
__________________________________________________________________________________________________
scale3a_branch2b (Scale)        (None, 96, 96, 128)  256         bn3a_branch2b[0][0]              
__________________________________________________________________________________________________
res3a_branch2b_relu (Activation (None, 96, 96, 128)  0           scale3a_branch2b[0][0]           
__________________________________________________________________________________________________
res3a_branch2c (Conv2D)         (None, 96, 96, 512)  65536       res3a_branch2b_relu[0][0]        
__________________________________________________________________________________________________
res3a_branch1 (Conv2D)          (None, 96, 96, 512)  131072      res2c_relu[0][0]                 
__________________________________________________________________________________________________
bn3a_branch2c (BatchNormalizati (None, 96, 96, 512)  2048        res3a_branch2c[0][0]             
__________________________________________________________________________________________________
bn3a_branch1 (BatchNormalizatio (None, 96, 96, 512)  2048        res3a_branch1[0][0]              
__________________________________________________________________________________________________
scale3a_branch2c (Scale)        (None, 96, 96, 512)  1024        bn3a_branch2c[0][0]              
__________________________________________________________________________________________________
scale3a_branch1 (Scale)         (None, 96, 96, 512)  1024        bn3a_branch1[0][0]               
__________________________________________________________________________________________________
res3a (Add)                     (None, 96, 96, 512)  0           scale3a_branch2c[0][0]           
                                                                 scale3a_branch1[0][0]            
__________________________________________________________________________________________________
res3a_relu (Activation)         (None, 96, 96, 512)  0           res3a[0][0]                      
__________________________________________________________________________________________________
res3b1_branch2a (Conv2D)        (None, 96, 96, 128)  65536       res3a_relu[0][0]                 
__________________________________________________________________________________________________
bn3b1_branch2a (BatchNormalizat (None, 96, 96, 128)  512         res3b1_branch2a[0][0]            
__________________________________________________________________________________________________
scale3b1_branch2a (Scale)       (None, 96, 96, 128)  256         bn3b1_branch2a[0][0]             
__________________________________________________________________________________________________
res3b1_branch2a_relu (Activatio (None, 96, 96, 128)  0           scale3b1_branch2a[0][0]          
__________________________________________________________________________________________________
res3b1_branch2b_zeropadding (Ze (None, 98, 98, 128)  0           res3b1_branch2a_relu[0][0]       
__________________________________________________________________________________________________
res3b1_branch2b (Conv2D)        (None, 96, 96, 128)  147456      res3b1_branch2b_zeropadding[0][0]
__________________________________________________________________________________________________
bn3b1_branch2b (BatchNormalizat (None, 96, 96, 128)  512         res3b1_branch2b[0][0]            
__________________________________________________________________________________________________
scale3b1_branch2b (Scale)       (None, 96, 96, 128)  256         bn3b1_branch2b[0][0]             
__________________________________________________________________________________________________
res3b1_branch2b_relu (Activatio (None, 96, 96, 128)  0           scale3b1_branch2b[0][0]          
__________________________________________________________________________________________________
res3b1_branch2c (Conv2D)        (None, 96, 96, 512)  65536       res3b1_branch2b_relu[0][0]       
__________________________________________________________________________________________________
bn3b1_branch2c (BatchNormalizat (None, 96, 96, 512)  2048        res3b1_branch2c[0][0]            
__________________________________________________________________________________________________
scale3b1_branch2c (Scale)       (None, 96, 96, 512)  1024        bn3b1_branch2c[0][0]             
__________________________________________________________________________________________________
res3b1 (Add)                    (None, 96, 96, 512)  0           scale3b1_branch2c[0][0]          
                                                                 res3a_relu[0][0]                 
__________________________________________________________________________________________________
res3b1_relu (Activation)        (None, 96, 96, 512)  0           res3b1[0][0]                     
__________________________________________________________________________________________________
res3b2_branch2a (Conv2D)        (None, 96, 96, 128)  65536       res3b1_relu[0][0]                
__________________________________________________________________________________________________
bn3b2_branch2a (BatchNormalizat (None, 96, 96, 128)  512         res3b2_branch2a[0][0]            
__________________________________________________________________________________________________
scale3b2_branch2a (Scale)       (None, 96, 96, 128)  256         bn3b2_branch2a[0][0]             
__________________________________________________________________________________________________
res3b2_branch2a_relu (Activatio (None, 96, 96, 128)  0           scale3b2_branch2a[0][0]          
__________________________________________________________________________________________________
res3b2_branch2b_zeropadding (Ze (None, 98, 98, 128)  0           res3b2_branch2a_relu[0][0]       
__________________________________________________________________________________________________
res3b2_branch2b (Conv2D)        (None, 96, 96, 128)  147456      res3b2_branch2b_zeropadding[0][0]
__________________________________________________________________________________________________
bn3b2_branch2b (BatchNormalizat (None, 96, 96, 128)  512         res3b2_branch2b[0][0]            
__________________________________________________________________________________________________
scale3b2_branch2b (Scale)       (None, 96, 96, 128)  256         bn3b2_branch2b[0][0]             
__________________________________________________________________________________________________
res3b2_branch2b_relu (Activatio (None, 96, 96, 128)  0           scale3b2_branch2b[0][0]          
__________________________________________________________________________________________________
res3b2_branch2c (Conv2D)        (None, 96, 96, 512)  65536       res3b2_branch2b_relu[0][0]       
__________________________________________________________________________________________________
bn3b2_branch2c (BatchNormalizat (None, 96, 96, 512)  2048        res3b2_branch2c[0][0]            
__________________________________________________________________________________________________
scale3b2_branch2c (Scale)       (None, 96, 96, 512)  1024        bn3b2_branch2c[0][0]             
__________________________________________________________________________________________________
res3b2 (Add)                    (None, 96, 96, 512)  0           scale3b2_branch2c[0][0]          
                                                                 res3b1_relu[0][0]                
__________________________________________________________________________________________________
res3b2_relu (Activation)        (None, 96, 96, 512)  0           res3b2[0][0]                     
__________________________________________________________________________________________________
res3b3_branch2a (Conv2D)        (None, 96, 96, 128)  65536       res3b2_relu[0][0]                
__________________________________________________________________________________________________
bn3b3_branch2a (BatchNormalizat (None, 96, 96, 128)  512         res3b3_branch2a[0][0]            
__________________________________________________________________________________________________
scale3b3_branch2a (Scale)       (None, 96, 96, 128)  256         bn3b3_branch2a[0][0]             
__________________________________________________________________________________________________
res3b3_branch2a_relu (Activatio (None, 96, 96, 128)  0           scale3b3_branch2a[0][0]          
__________________________________________________________________________________________________
res3b3_branch2b_zeropadding (Ze (None, 98, 98, 128)  0           res3b3_branch2a_relu[0][0]       
__________________________________________________________________________________________________
res3b3_branch2b (Conv2D)        (None, 96, 96, 128)  147456      res3b3_branch2b_zeropadding[0][0]
__________________________________________________________________________________________________
bn3b3_branch2b (BatchNormalizat (None, 96, 96, 128)  512         res3b3_branch2b[0][0]            
__________________________________________________________________________________________________
scale3b3_branch2b (Scale)       (None, 96, 96, 128)  256         bn3b3_branch2b[0][0]             
__________________________________________________________________________________________________
res3b3_branch2b_relu (Activatio (None, 96, 96, 128)  0           scale3b3_branch2b[0][0]          
__________________________________________________________________________________________________
res3b3_branch2c (Conv2D)        (None, 96, 96, 512)  65536       res3b3_branch2b_relu[0][0]       
__________________________________________________________________________________________________
bn3b3_branch2c (BatchNormalizat (None, 96, 96, 512)  2048        res3b3_branch2c[0][0]            
__________________________________________________________________________________________________
scale3b3_branch2c (Scale)       (None, 96, 96, 512)  1024        bn3b3_branch2c[0][0]             
__________________________________________________________________________________________________
res3b3 (Add)                    (None, 96, 96, 512)  0           scale3b3_branch2c[0][0]          
                                                                 res3b2_relu[0][0]                
__________________________________________________________________________________________________
res3b3_relu (Activation)        (None, 96, 96, 512)  0           res3b3[0][0]                     
__________________________________________________________________________________________________
res4a_branch2a (Conv2D)         (None, 48, 48, 256)  131072      res3b3_relu[0][0]                
__________________________________________________________________________________________________
bn4a_branch2a (BatchNormalizati (None, 48, 48, 256)  1024        res4a_branch2a[0][0]             
__________________________________________________________________________________________________
scale4a_branch2a (Scale)        (None, 48, 48, 256)  512         bn4a_branch2a[0][0]              
__________________________________________________________________________________________________
res4a_branch2a_relu (Activation (None, 48, 48, 256)  0           scale4a_branch2a[0][0]           
__________________________________________________________________________________________________
res4a_branch2b_zeropadding (Zer (None, 50, 50, 256)  0           res4a_branch2a_relu[0][0]        
__________________________________________________________________________________________________
res4a_branch2b (Conv2D)         (None, 48, 48, 256)  589824      res4a_branch2b_zeropadding[0][0] 
__________________________________________________________________________________________________
bn4a_branch2b (BatchNormalizati (None, 48, 48, 256)  1024        res4a_branch2b[0][0]             
__________________________________________________________________________________________________
scale4a_branch2b (Scale)        (None, 48, 48, 256)  512         bn4a_branch2b[0][0]              
__________________________________________________________________________________________________
res4a_branch2b_relu (Activation (None, 48, 48, 256)  0           scale4a_branch2b[0][0]           
__________________________________________________________________________________________________
res4a_branch2c (Conv2D)         (None, 48, 48, 1024) 262144      res4a_branch2b_relu[0][0]        
__________________________________________________________________________________________________
res4a_branch1 (Conv2D)          (None, 48, 48, 1024) 524288      res3b3_relu[0][0]                
__________________________________________________________________________________________________
bn4a_branch2c (BatchNormalizati (None, 48, 48, 1024) 4096        res4a_branch2c[0][0]             
__________________________________________________________________________________________________
bn4a_branch1 (BatchNormalizatio (None, 48, 48, 1024) 4096        res4a_branch1[0][0]              
__________________________________________________________________________________________________
scale4a_branch2c (Scale)        (None, 48, 48, 1024) 2048        bn4a_branch2c[0][0]              
__________________________________________________________________________________________________
scale4a_branch1 (Scale)         (None, 48, 48, 1024) 2048        bn4a_branch1[0][0]               
__________________________________________________________________________________________________
res4a (Add)                     (None, 48, 48, 1024) 0           scale4a_branch2c[0][0]           
                                                                 scale4a_branch1[0][0]            
__________________________________________________________________________________________________
res4a_relu (Activation)         (None, 48, 48, 1024) 0           res4a[0][0]                      
__________________________________________________________________________________________________
res4b1_branch2a (Conv2D)        (None, 48, 48, 256)  262144      res4a_relu[0][0]                 
__________________________________________________________________________________________________
bn4b1_branch2a (BatchNormalizat (None, 48, 48, 256)  1024        res4b1_branch2a[0][0]            
__________________________________________________________________________________________________
scale4b1_branch2a (Scale)       (None, 48, 48, 256)  512         bn4b1_branch2a[0][0]             
__________________________________________________________________________________________________
res4b1_branch2a_relu (Activatio (None, 48, 48, 256)  0           scale4b1_branch2a[0][0]          
__________________________________________________________________________________________________
res4b1_branch2b_zeropadding (Ze (None, 50, 50, 256)  0           res4b1_branch2a_relu[0][0]       
__________________________________________________________________________________________________
res4b1_branch2b (Conv2D)        (None, 48, 48, 256)  589824      res4b1_branch2b_zeropadding[0][0]
__________________________________________________________________________________________________
bn4b1_branch2b (BatchNormalizat (None, 48, 48, 256)  1024        res4b1_branch2b[0][0]            
__________________________________________________________________________________________________
scale4b1_branch2b (Scale)       (None, 48, 48, 256)  512         bn4b1_branch2b[0][0]             
__________________________________________________________________________________________________
res4b1_branch2b_relu (Activatio (None, 48, 48, 256)  0           scale4b1_branch2b[0][0]          
__________________________________________________________________________________________________
res4b1_branch2c (Conv2D)        (None, 48, 48, 1024) 262144      res4b1_branch2b_relu[0][0]       
__________________________________________________________________________________________________
bn4b1_branch2c (BatchNormalizat (None, 48, 48, 1024) 4096        res4b1_branch2c[0][0]            
__________________________________________________________________________________________________
scale4b1_branch2c (Scale)       (None, 48, 48, 1024) 2048        bn4b1_branch2c[0][0]             
__________________________________________________________________________________________________
res4b1 (Add)                    (None, 48, 48, 1024) 0           scale4b1_branch2c[0][0]          
                                                                 res4a_relu[0][0]                 
__________________________________________________________________________________________________
res4b1_relu (Activation)        (None, 48, 48, 1024) 0           res4b1[0][0]                     
__________________________________________________________________________________________________
res4b2_branch2a (Conv2D)        (None, 48, 48, 256)  262144      res4b1_relu[0][0]                
__________________________________________________________________________________________________
bn4b2_branch2a (BatchNormalizat (None, 48, 48, 256)  1024        res4b2_branch2a[0][0]            
__________________________________________________________________________________________________
scale4b2_branch2a (Scale)       (None, 48, 48, 256)  512         bn4b2_branch2a[0][0]             
__________________________________________________________________________________________________
res4b2_branch2a_relu (Activatio (None, 48, 48, 256)  0           scale4b2_branch2a[0][0]          
__________________________________________________________________________________________________
res4b2_branch2b_zeropadding (Ze (None, 50, 50, 256)  0           res4b2_branch2a_relu[0][0]       
__________________________________________________________________________________________________
res4b2_branch2b (Conv2D)        (None, 48, 48, 256)  589824      res4b2_branch2b_zeropadding[0][0]
__________________________________________________________________________________________________
bn4b2_branch2b (BatchNormalizat (None, 48, 48, 256)  1024        res4b2_branch2b[0][0]            
__________________________________________________________________________________________________
scale4b2_branch2b (Scale)       (None, 48, 48, 256)  512         bn4b2_branch2b[0][0]             
__________________________________________________________________________________________________
res4b2_branch2b_relu (Activatio (None, 48, 48, 256)  0           scale4b2_branch2b[0][0]          
__________________________________________________________________________________________________
res4b2_branch2c (Conv2D)        (None, 48, 48, 1024) 262144      res4b2_branch2b_relu[0][0]       
__________________________________________________________________________________________________
bn4b2_branch2c (BatchNormalizat (None, 48, 48, 1024) 4096        res4b2_branch2c[0][0]            
__________________________________________________________________________________________________
scale4b2_branch2c (Scale)       (None, 48, 48, 1024) 2048        bn4b2_branch2c[0][0]             
__________________________________________________________________________________________________
res4b2 (Add)                    (None, 48, 48, 1024) 0           scale4b2_branch2c[0][0]          
                                                                 res4b1_relu[0][0]                
__________________________________________________________________________________________________
res4b2_relu (Activation)        (None, 48, 48, 1024) 0           res4b2[0][0]                     
__________________________________________________________________________________________________
res4b3_branch2a (Conv2D)        (None, 48, 48, 256)  262144      res4b2_relu[0][0]                
__________________________________________________________________________________________________
bn4b3_branch2a (BatchNormalizat (None, 48, 48, 256)  1024        res4b3_branch2a[0][0]            
__________________________________________________________________________________________________
scale4b3_branch2a (Scale)       (None, 48, 48, 256)  512         bn4b3_branch2a[0][0]             
__________________________________________________________________________________________________
res4b3_branch2a_relu (Activatio (None, 48, 48, 256)  0           scale4b3_branch2a[0][0]          
__________________________________________________________________________________________________
res4b3_branch2b_zeropadding (Ze (None, 50, 50, 256)  0           res4b3_branch2a_relu[0][0]       
__________________________________________________________________________________________________
res4b3_branch2b (Conv2D)        (None, 48, 48, 256)  589824      res4b3_branch2b_zeropadding[0][0]
__________________________________________________________________________________________________
bn4b3_branch2b (BatchNormalizat (None, 48, 48, 256)  1024        res4b3_branch2b[0][0]            
__________________________________________________________________________________________________
scale4b3_branch2b (Scale)       (None, 48, 48, 256)  512         bn4b3_branch2b[0][0]             
__________________________________________________________________________________________________
res4b3_branch2b_relu (Activatio (None, 48, 48, 256)  0           scale4b3_branch2b[0][0]          
__________________________________________________________________________________________________
res4b3_branch2c (Conv2D)        (None, 48, 48, 1024) 262144      res4b3_branch2b_relu[0][0]       
__________________________________________________________________________________________________
bn4b3_branch2c (BatchNormalizat (None, 48, 48, 1024) 4096        res4b3_branch2c[0][0]            
__________________________________________________________________________________________________
scale4b3_branch2c (Scale)       (None, 48, 48, 1024) 2048        bn4b3_branch2c[0][0]             
__________________________________________________________________________________________________
res4b3 (Add)                    (None, 48, 48, 1024) 0           scale4b3_branch2c[0][0]          
                                                                 res4b2_relu[0][0]                
__________________________________________________________________________________________________
res4b3_relu (Activation)        (None, 48, 48, 1024) 0           res4b3[0][0]                     
__________________________________________________________________________________________________
res4b4_branch2a (Conv2D)        (None, 48, 48, 256)  262144      res4b3_relu[0][0]                
__________________________________________________________________________________________________
bn4b4_branch2a (BatchNormalizat (None, 48, 48, 256)  1024        res4b4_branch2a[0][0]            
__________________________________________________________________________________________________
scale4b4_branch2a (Scale)       (None, 48, 48, 256)  512         bn4b4_branch2a[0][0]             
__________________________________________________________________________________________________
res4b4_branch2a_relu (Activatio (None, 48, 48, 256)  0           scale4b4_branch2a[0][0]          
__________________________________________________________________________________________________
res4b4_branch2b_zeropadding (Ze (None, 50, 50, 256)  0           res4b4_branch2a_relu[0][0]       
__________________________________________________________________________________________________
res4b4_branch2b (Conv2D)        (None, 48, 48, 256)  589824      res4b4_branch2b_zeropadding[0][0]
__________________________________________________________________________________________________
bn4b4_branch2b (BatchNormalizat (None, 48, 48, 256)  1024        res4b4_branch2b[0][0]            
__________________________________________________________________________________________________
scale4b4_branch2b (Scale)       (None, 48, 48, 256)  512         bn4b4_branch2b[0][0]             
__________________________________________________________________________________________________
res4b4_branch2b_relu (Activatio (None, 48, 48, 256)  0           scale4b4_branch2b[0][0]          
__________________________________________________________________________________________________
res4b4_branch2c (Conv2D)        (None, 48, 48, 1024) 262144      res4b4_branch2b_relu[0][0]       
__________________________________________________________________________________________________
bn4b4_branch2c (BatchNormalizat (None, 48, 48, 1024) 4096        res4b4_branch2c[0][0]            
__________________________________________________________________________________________________
scale4b4_branch2c (Scale)       (None, 48, 48, 1024) 2048        bn4b4_branch2c[0][0]             
__________________________________________________________________________________________________
res4b4 (Add)                    (None, 48, 48, 1024) 0           scale4b4_branch2c[0][0]          
                                                                 res4b3_relu[0][0]                
__________________________________________________________________________________________________
res4b4_relu (Activation)        (None, 48, 48, 1024) 0           res4b4[0][0]                     
__________________________________________________________________________________________________
res4b5_branch2a (Conv2D)        (None, 48, 48, 256)  262144      res4b4_relu[0][0]                
__________________________________________________________________________________________________
bn4b5_branch2a (BatchNormalizat (None, 48, 48, 256)  1024        res4b5_branch2a[0][0]            
__________________________________________________________________________________________________
scale4b5_branch2a (Scale)       (None, 48, 48, 256)  512         bn4b5_branch2a[0][0]             
__________________________________________________________________________________________________
res4b5_branch2a_relu (Activatio (None, 48, 48, 256)  0           scale4b5_branch2a[0][0]          
__________________________________________________________________________________________________
res4b5_branch2b_zeropadding (Ze (None, 50, 50, 256)  0           res4b5_branch2a_relu[0][0]       
__________________________________________________________________________________________________
res4b5_branch2b (Conv2D)        (None, 48, 48, 256)  589824      res4b5_branch2b_zeropadding[0][0]
__________________________________________________________________________________________________
bn4b5_branch2b (BatchNormalizat (None, 48, 48, 256)  1024        res4b5_branch2b[0][0]            
__________________________________________________________________________________________________
scale4b5_branch2b (Scale)       (None, 48, 48, 256)  512         bn4b5_branch2b[0][0]             
__________________________________________________________________________________________________
res4b5_branch2b_relu (Activatio (None, 48, 48, 256)  0           scale4b5_branch2b[0][0]          
__________________________________________________________________________________________________
res4b5_branch2c (Conv2D)        (None, 48, 48, 1024) 262144      res4b5_branch2b_relu[0][0]       
__________________________________________________________________________________________________
bn4b5_branch2c (BatchNormalizat (None, 48, 48, 1024) 4096        res4b5_branch2c[0][0]            
__________________________________________________________________________________________________
scale4b5_branch2c (Scale)       (None, 48, 48, 1024) 2048        bn4b5_branch2c[0][0]             
__________________________________________________________________________________________________
res4b5 (Add)                    (None, 48, 48, 1024) 0           scale4b5_branch2c[0][0]          
                                                                 res4b4_relu[0][0]                
__________________________________________________________________________________________________
res4b5_relu (Activation)        (None, 48, 48, 1024) 0           res4b5[0][0]                     
__________________________________________________________________________________________________
res4b6_branch2a (Conv2D)        (None, 48, 48, 256)  262144      res4b5_relu[0][0]                
__________________________________________________________________________________________________
bn4b6_branch2a (BatchNormalizat (None, 48, 48, 256)  1024        res4b6_branch2a[0][0]            
__________________________________________________________________________________________________
scale4b6_branch2a (Scale)       (None, 48, 48, 256)  512         bn4b6_branch2a[0][0]             
__________________________________________________________________________________________________
res4b6_branch2a_relu (Activatio (None, 48, 48, 256)  0           scale4b6_branch2a[0][0]          
__________________________________________________________________________________________________
res4b6_branch2b_zeropadding (Ze (None, 50, 50, 256)  0           res4b6_branch2a_relu[0][0]       
__________________________________________________________________________________________________
res4b6_branch2b (Conv2D)        (None, 48, 48, 256)  589824      res4b6_branch2b_zeropadding[0][0]
__________________________________________________________________________________________________
bn4b6_branch2b (BatchNormalizat (None, 48, 48, 256)  1024        res4b6_branch2b[0][0]            
__________________________________________________________________________________________________
scale4b6_branch2b (Scale)       (None, 48, 48, 256)  512         bn4b6_branch2b[0][0]             
__________________________________________________________________________________________________
res4b6_branch2b_relu (Activatio (None, 48, 48, 256)  0           scale4b6_branch2b[0][0]          
__________________________________________________________________________________________________
res4b6_branch2c (Conv2D)        (None, 48, 48, 1024) 262144      res4b6_branch2b_relu[0][0]       
__________________________________________________________________________________________________
bn4b6_branch2c (BatchNormalizat (None, 48, 48, 1024) 4096        res4b6_branch2c[0][0]            
__________________________________________________________________________________________________
scale4b6_branch2c (Scale)       (None, 48, 48, 1024) 2048        bn4b6_branch2c[0][0]             
__________________________________________________________________________________________________
res4b6 (Add)                    (None, 48, 48, 1024) 0           scale4b6_branch2c[0][0]          
                                                                 res4b5_relu[0][0]                
__________________________________________________________________________________________________
res4b6_relu (Activation)        (None, 48, 48, 1024) 0           res4b6[0][0]                     
__________________________________________________________________________________________________
res4b7_branch2a (Conv2D)        (None, 48, 48, 256)  262144      res4b6_relu[0][0]                
__________________________________________________________________________________________________
bn4b7_branch2a (BatchNormalizat (None, 48, 48, 256)  1024        res4b7_branch2a[0][0]            
__________________________________________________________________________________________________
scale4b7_branch2a (Scale)       (None, 48, 48, 256)  512         bn4b7_branch2a[0][0]             
__________________________________________________________________________________________________
res4b7_branch2a_relu (Activatio (None, 48, 48, 256)  0           scale4b7_branch2a[0][0]          
__________________________________________________________________________________________________
res4b7_branch2b_zeropadding (Ze (None, 50, 50, 256)  0           res4b7_branch2a_relu[0][0]       
__________________________________________________________________________________________________
res4b7_branch2b (Conv2D)        (None, 48, 48, 256)  589824      res4b7_branch2b_zeropadding[0][0]
__________________________________________________________________________________________________
bn4b7_branch2b (BatchNormalizat (None, 48, 48, 256)  1024        res4b7_branch2b[0][0]            
__________________________________________________________________________________________________
scale4b7_branch2b (Scale)       (None, 48, 48, 256)  512         bn4b7_branch2b[0][0]             
__________________________________________________________________________________________________
res4b7_branch2b_relu (Activatio (None, 48, 48, 256)  0           scale4b7_branch2b[0][0]          
__________________________________________________________________________________________________
res4b7_branch2c (Conv2D)        (None, 48, 48, 1024) 262144      res4b7_branch2b_relu[0][0]       
__________________________________________________________________________________________________
bn4b7_branch2c (BatchNormalizat (None, 48, 48, 1024) 4096        res4b7_branch2c[0][0]            
__________________________________________________________________________________________________
scale4b7_branch2c (Scale)       (None, 48, 48, 1024) 2048        bn4b7_branch2c[0][0]             
__________________________________________________________________________________________________
res4b7 (Add)                    (None, 48, 48, 1024) 0           scale4b7_branch2c[0][0]          
                                                                 res4b6_relu[0][0]                
__________________________________________________________________________________________________
res4b7_relu (Activation)        (None, 48, 48, 1024) 0           res4b7[0][0]                     
__________________________________________________________________________________________________
res4b8_branch2a (Conv2D)        (None, 48, 48, 256)  262144      res4b7_relu[0][0]                
__________________________________________________________________________________________________
bn4b8_branch2a (BatchNormalizat (None, 48, 48, 256)  1024        res4b8_branch2a[0][0]            
__________________________________________________________________________________________________
scale4b8_branch2a (Scale)       (None, 48, 48, 256)  512         bn4b8_branch2a[0][0]             
__________________________________________________________________________________________________
res4b8_branch2a_relu (Activatio (None, 48, 48, 256)  0           scale4b8_branch2a[0][0]          
__________________________________________________________________________________________________
res4b8_branch2b_zeropadding (Ze (None, 50, 50, 256)  0           res4b8_branch2a_relu[0][0]       
__________________________________________________________________________________________________
res4b8_branch2b (Conv2D)        (None, 48, 48, 256)  589824      res4b8_branch2b_zeropadding[0][0]
__________________________________________________________________________________________________
bn4b8_branch2b (BatchNormalizat (None, 48, 48, 256)  1024        res4b8_branch2b[0][0]            
__________________________________________________________________________________________________
scale4b8_branch2b (Scale)       (None, 48, 48, 256)  512         bn4b8_branch2b[0][0]             
__________________________________________________________________________________________________
res4b8_branch2b_relu (Activatio (None, 48, 48, 256)  0           scale4b8_branch2b[0][0]          
__________________________________________________________________________________________________
res4b8_branch2c (Conv2D)        (None, 48, 48, 1024) 262144      res4b8_branch2b_relu[0][0]       
__________________________________________________________________________________________________
bn4b8_branch2c (BatchNormalizat (None, 48, 48, 1024) 4096        res4b8_branch2c[0][0]            
__________________________________________________________________________________________________
scale4b8_branch2c (Scale)       (None, 48, 48, 1024) 2048        bn4b8_branch2c[0][0]             
__________________________________________________________________________________________________
res4b8 (Add)                    (None, 48, 48, 1024) 0           scale4b8_branch2c[0][0]          
                                                                 res4b7_relu[0][0]                
__________________________________________________________________________________________________
res4b8_relu (Activation)        (None, 48, 48, 1024) 0           res4b8[0][0]                     
__________________________________________________________________________________________________
res4b9_branch2a (Conv2D)        (None, 48, 48, 256)  262144      res4b8_relu[0][0]                
__________________________________________________________________________________________________
bn4b9_branch2a (BatchNormalizat (None, 48, 48, 256)  1024        res4b9_branch2a[0][0]            
__________________________________________________________________________________________________
scale4b9_branch2a (Scale)       (None, 48, 48, 256)  512         bn4b9_branch2a[0][0]             
__________________________________________________________________________________________________
res4b9_branch2a_relu (Activatio (None, 48, 48, 256)  0           scale4b9_branch2a[0][0]          
__________________________________________________________________________________________________
res4b9_branch2b_zeropadding (Ze (None, 50, 50, 256)  0           res4b9_branch2a_relu[0][0]       
__________________________________________________________________________________________________
res4b9_branch2b (Conv2D)        (None, 48, 48, 256)  589824      res4b9_branch2b_zeropadding[0][0]
__________________________________________________________________________________________________
bn4b9_branch2b (BatchNormalizat (None, 48, 48, 256)  1024        res4b9_branch2b[0][0]            
__________________________________________________________________________________________________
scale4b9_branch2b (Scale)       (None, 48, 48, 256)  512         bn4b9_branch2b[0][0]             
__________________________________________________________________________________________________
res4b9_branch2b_relu (Activatio (None, 48, 48, 256)  0           scale4b9_branch2b[0][0]          
__________________________________________________________________________________________________
res4b9_branch2c (Conv2D)        (None, 48, 48, 1024) 262144      res4b9_branch2b_relu[0][0]       
__________________________________________________________________________________________________
bn4b9_branch2c (BatchNormalizat (None, 48, 48, 1024) 4096        res4b9_branch2c[0][0]            
__________________________________________________________________________________________________
scale4b9_branch2c (Scale)       (None, 48, 48, 1024) 2048        bn4b9_branch2c[0][0]             
__________________________________________________________________________________________________
res4b9 (Add)                    (None, 48, 48, 1024) 0           scale4b9_branch2c[0][0]          
                                                                 res4b8_relu[0][0]                
__________________________________________________________________________________________________
res4b9_relu (Activation)        (None, 48, 48, 1024) 0           res4b9[0][0]                     
__________________________________________________________________________________________________
res4b10_branch2a (Conv2D)       (None, 48, 48, 256)  262144      res4b9_relu[0][0]                
__________________________________________________________________________________________________
bn4b10_branch2a (BatchNormaliza (None, 48, 48, 256)  1024        res4b10_branch2a[0][0]           
__________________________________________________________________________________________________
scale4b10_branch2a (Scale)      (None, 48, 48, 256)  512         bn4b10_branch2a[0][0]            
__________________________________________________________________________________________________
res4b10_branch2a_relu (Activati (None, 48, 48, 256)  0           scale4b10_branch2a[0][0]         
__________________________________________________________________________________________________
res4b10_branch2b_zeropadding (Z (None, 50, 50, 256)  0           res4b10_branch2a_relu[0][0]      
__________________________________________________________________________________________________
res4b10_branch2b (Conv2D)       (None, 48, 48, 256)  589824      res4b10_branch2b_zeropadding[0][0
__________________________________________________________________________________________________
bn4b10_branch2b (BatchNormaliza (None, 48, 48, 256)  1024        res4b10_branch2b[0][0]           
__________________________________________________________________________________________________
scale4b10_branch2b (Scale)      (None, 48, 48, 256)  512         bn4b10_branch2b[0][0]            
__________________________________________________________________________________________________
res4b10_branch2b_relu (Activati (None, 48, 48, 256)  0           scale4b10_branch2b[0][0]         
__________________________________________________________________________________________________
res4b10_branch2c (Conv2D)       (None, 48, 48, 1024) 262144      res4b10_branch2b_relu[0][0]      
__________________________________________________________________________________________________
bn4b10_branch2c (BatchNormaliza (None, 48, 48, 1024) 4096        res4b10_branch2c[0][0]           
__________________________________________________________________________________________________
scale4b10_branch2c (Scale)      (None, 48, 48, 1024) 2048        bn4b10_branch2c[0][0]            
__________________________________________________________________________________________________
res4b10 (Add)                   (None, 48, 48, 1024) 0           scale4b10_branch2c[0][0]         
                                                                 res4b9_relu[0][0]                
__________________________________________________________________________________________________
res4b10_relu (Activation)       (None, 48, 48, 1024) 0           res4b10[0][0]                    
__________________________________________________________________________________________________
res4b11_branch2a (Conv2D)       (None, 48, 48, 256)  262144      res4b10_relu[0][0]               
__________________________________________________________________________________________________
bn4b11_branch2a (BatchNormaliza (None, 48, 48, 256)  1024        res4b11_branch2a[0][0]           
__________________________________________________________________________________________________
scale4b11_branch2a (Scale)      (None, 48, 48, 256)  512         bn4b11_branch2a[0][0]            
__________________________________________________________________________________________________
res4b11_branch2a_relu (Activati (None, 48, 48, 256)  0           scale4b11_branch2a[0][0]         
__________________________________________________________________________________________________
res4b11_branch2b_zeropadding (Z (None, 50, 50, 256)  0           res4b11_branch2a_relu[0][0]      
__________________________________________________________________________________________________
res4b11_branch2b (Conv2D)       (None, 48, 48, 256)  589824      res4b11_branch2b_zeropadding[0][0
__________________________________________________________________________________________________
bn4b11_branch2b (BatchNormaliza (None, 48, 48, 256)  1024        res4b11_branch2b[0][0]           
__________________________________________________________________________________________________
scale4b11_branch2b (Scale)      (None, 48, 48, 256)  512         bn4b11_branch2b[0][0]            
__________________________________________________________________________________________________
res4b11_branch2b_relu (Activati (None, 48, 48, 256)  0           scale4b11_branch2b[0][0]         
__________________________________________________________________________________________________
res4b11_branch2c (Conv2D)       (None, 48, 48, 1024) 262144      res4b11_branch2b_relu[0][0]      
__________________________________________________________________________________________________
bn4b11_branch2c (BatchNormaliza (None, 48, 48, 1024) 4096        res4b11_branch2c[0][0]           
__________________________________________________________________________________________________
scale4b11_branch2c (Scale)      (None, 48, 48, 1024) 2048        bn4b11_branch2c[0][0]            
__________________________________________________________________________________________________
res4b11 (Add)                   (None, 48, 48, 1024) 0           scale4b11_branch2c[0][0]         
                                                                 res4b10_relu[0][0]               
__________________________________________________________________________________________________
res4b11_relu (Activation)       (None, 48, 48, 1024) 0           res4b11[0][0]                    
__________________________________________________________________________________________________
res4b12_branch2a (Conv2D)       (None, 48, 48, 256)  262144      res4b11_relu[0][0]               
__________________________________________________________________________________________________
bn4b12_branch2a (BatchNormaliza (None, 48, 48, 256)  1024        res4b12_branch2a[0][0]           
__________________________________________________________________________________________________
scale4b12_branch2a (Scale)      (None, 48, 48, 256)  512         bn4b12_branch2a[0][0]            
__________________________________________________________________________________________________
res4b12_branch2a_relu (Activati (None, 48, 48, 256)  0           scale4b12_branch2a[0][0]         
__________________________________________________________________________________________________
res4b12_branch2b_zeropadding (Z (None, 50, 50, 256)  0           res4b12_branch2a_relu[0][0]      
__________________________________________________________________________________________________
res4b12_branch2b (Conv2D)       (None, 48, 48, 256)  589824      res4b12_branch2b_zeropadding[0][0
__________________________________________________________________________________________________
bn4b12_branch2b (BatchNormaliza (None, 48, 48, 256)  1024        res4b12_branch2b[0][0]           
__________________________________________________________________________________________________
scale4b12_branch2b (Scale)      (None, 48, 48, 256)  512         bn4b12_branch2b[0][0]            
__________________________________________________________________________________________________
res4b12_branch2b_relu (Activati (None, 48, 48, 256)  0           scale4b12_branch2b[0][0]         
__________________________________________________________________________________________________
res4b12_branch2c (Conv2D)       (None, 48, 48, 1024) 262144      res4b12_branch2b_relu[0][0]      
__________________________________________________________________________________________________
bn4b12_branch2c (BatchNormaliza (None, 48, 48, 1024) 4096        res4b12_branch2c[0][0]           
__________________________________________________________________________________________________
scale4b12_branch2c (Scale)      (None, 48, 48, 1024) 2048        bn4b12_branch2c[0][0]            
__________________________________________________________________________________________________
res4b12 (Add)                   (None, 48, 48, 1024) 0           scale4b12_branch2c[0][0]         
                                                                 res4b11_relu[0][0]               
__________________________________________________________________________________________________
res4b12_relu (Activation)       (None, 48, 48, 1024) 0           res4b12[0][0]                    
__________________________________________________________________________________________________
res4b13_branch2a (Conv2D)       (None, 48, 48, 256)  262144      res4b12_relu[0][0]               
__________________________________________________________________________________________________
bn4b13_branch2a (BatchNormaliza (None, 48, 48, 256)  1024        res4b13_branch2a[0][0]           
__________________________________________________________________________________________________
scale4b13_branch2a (Scale)      (None, 48, 48, 256)  512         bn4b13_branch2a[0][0]            
__________________________________________________________________________________________________
res4b13_branch2a_relu (Activati (None, 48, 48, 256)  0           scale4b13_branch2a[0][0]         
__________________________________________________________________________________________________
res4b13_branch2b_zeropadding (Z (None, 50, 50, 256)  0           res4b13_branch2a_relu[0][0]      
__________________________________________________________________________________________________
res4b13_branch2b (Conv2D)       (None, 48, 48, 256)  589824      res4b13_branch2b_zeropadding[0][0
__________________________________________________________________________________________________
bn4b13_branch2b (BatchNormaliza (None, 48, 48, 256)  1024        res4b13_branch2b[0][0]           
__________________________________________________________________________________________________
scale4b13_branch2b (Scale)      (None, 48, 48, 256)  512         bn4b13_branch2b[0][0]            
__________________________________________________________________________________________________
res4b13_branch2b_relu (Activati (None, 48, 48, 256)  0           scale4b13_branch2b[0][0]         
__________________________________________________________________________________________________
res4b13_branch2c (Conv2D)       (None, 48, 48, 1024) 262144      res4b13_branch2b_relu[0][0]      
__________________________________________________________________________________________________
bn4b13_branch2c (BatchNormaliza (None, 48, 48, 1024) 4096        res4b13_branch2c[0][0]           
__________________________________________________________________________________________________
scale4b13_branch2c (Scale)      (None, 48, 48, 1024) 2048        bn4b13_branch2c[0][0]            
__________________________________________________________________________________________________
res4b13 (Add)                   (None, 48, 48, 1024) 0           scale4b13_branch2c[0][0]         
                                                                 res4b12_relu[0][0]               
__________________________________________________________________________________________________
res4b13_relu (Activation)       (None, 48, 48, 1024) 0           res4b13[0][0]                    
__________________________________________________________________________________________________
res4b14_branch2a (Conv2D)       (None, 48, 48, 256)  262144      res4b13_relu[0][0]               
__________________________________________________________________________________________________
bn4b14_branch2a (BatchNormaliza (None, 48, 48, 256)  1024        res4b14_branch2a[0][0]           
__________________________________________________________________________________________________
scale4b14_branch2a (Scale)      (None, 48, 48, 256)  512         bn4b14_branch2a[0][0]            
__________________________________________________________________________________________________
res4b14_branch2a_relu (Activati (None, 48, 48, 256)  0           scale4b14_branch2a[0][0]         
__________________________________________________________________________________________________
res4b14_branch2b_zeropadding (Z (None, 50, 50, 256)  0           res4b14_branch2a_relu[0][0]      
__________________________________________________________________________________________________
res4b14_branch2b (Conv2D)       (None, 48, 48, 256)  589824      res4b14_branch2b_zeropadding[0][0
__________________________________________________________________________________________________
bn4b14_branch2b (BatchNormaliza (None, 48, 48, 256)  1024        res4b14_branch2b[0][0]           
__________________________________________________________________________________________________
scale4b14_branch2b (Scale)      (None, 48, 48, 256)  512         bn4b14_branch2b[0][0]            
__________________________________________________________________________________________________
res4b14_branch2b_relu (Activati (None, 48, 48, 256)  0           scale4b14_branch2b[0][0]         
__________________________________________________________________________________________________
res4b14_branch2c (Conv2D)       (None, 48, 48, 1024) 262144      res4b14_branch2b_relu[0][0]      
__________________________________________________________________________________________________
bn4b14_branch2c (BatchNormaliza (None, 48, 48, 1024) 4096        res4b14_branch2c[0][0]           
__________________________________________________________________________________________________
scale4b14_branch2c (Scale)      (None, 48, 48, 1024) 2048        bn4b14_branch2c[0][0]            
__________________________________________________________________________________________________
res4b14 (Add)                   (None, 48, 48, 1024) 0           scale4b14_branch2c[0][0]         
                                                                 res4b13_relu[0][0]               
__________________________________________________________________________________________________
res4b14_relu (Activation)       (None, 48, 48, 1024) 0           res4b14[0][0]                    
__________________________________________________________________________________________________
res4b15_branch2a (Conv2D)       (None, 48, 48, 256)  262144      res4b14_relu[0][0]               
__________________________________________________________________________________________________
bn4b15_branch2a (BatchNormaliza (None, 48, 48, 256)  1024        res4b15_branch2a[0][0]           
__________________________________________________________________________________________________
scale4b15_branch2a (Scale)      (None, 48, 48, 256)  512         bn4b15_branch2a[0][0]            
__________________________________________________________________________________________________
res4b15_branch2a_relu (Activati (None, 48, 48, 256)  0           scale4b15_branch2a[0][0]         
__________________________________________________________________________________________________
res4b15_branch2b_zeropadding (Z (None, 50, 50, 256)  0           res4b15_branch2a_relu[0][0]      
__________________________________________________________________________________________________
res4b15_branch2b (Conv2D)       (None, 48, 48, 256)  589824      res4b15_branch2b_zeropadding[0][0
__________________________________________________________________________________________________
bn4b15_branch2b (BatchNormaliza (None, 48, 48, 256)  1024        res4b15_branch2b[0][0]           
__________________________________________________________________________________________________
scale4b15_branch2b (Scale)      (None, 48, 48, 256)  512         bn4b15_branch2b[0][0]            
__________________________________________________________________________________________________
res4b15_branch2b_relu (Activati (None, 48, 48, 256)  0           scale4b15_branch2b[0][0]         
__________________________________________________________________________________________________
res4b15_branch2c (Conv2D)       (None, 48, 48, 1024) 262144      res4b15_branch2b_relu[0][0]      
__________________________________________________________________________________________________
bn4b15_branch2c (BatchNormaliza (None, 48, 48, 1024) 4096        res4b15_branch2c[0][0]           
__________________________________________________________________________________________________
scale4b15_branch2c (Scale)      (None, 48, 48, 1024) 2048        bn4b15_branch2c[0][0]            
__________________________________________________________________________________________________
res4b15 (Add)                   (None, 48, 48, 1024) 0           scale4b15_branch2c[0][0]         
                                                                 res4b14_relu[0][0]               
__________________________________________________________________________________________________
res4b15_relu (Activation)       (None, 48, 48, 1024) 0           res4b15[0][0]                    
__________________________________________________________________________________________________
res4b16_branch2a (Conv2D)       (None, 48, 48, 256)  262144      res4b15_relu[0][0]               
__________________________________________________________________________________________________
bn4b16_branch2a (BatchNormaliza (None, 48, 48, 256)  1024        res4b16_branch2a[0][0]           
__________________________________________________________________________________________________
scale4b16_branch2a (Scale)      (None, 48, 48, 256)  512         bn4b16_branch2a[0][0]            
__________________________________________________________________________________________________
res4b16_branch2a_relu (Activati (None, 48, 48, 256)  0           scale4b16_branch2a[0][0]         
__________________________________________________________________________________________________
res4b16_branch2b_zeropadding (Z (None, 50, 50, 256)  0           res4b16_branch2a_relu[0][0]      
__________________________________________________________________________________________________
res4b16_branch2b (Conv2D)       (None, 48, 48, 256)  589824      res4b16_branch2b_zeropadding[0][0
__________________________________________________________________________________________________
bn4b16_branch2b (BatchNormaliza (None, 48, 48, 256)  1024        res4b16_branch2b[0][0]           
__________________________________________________________________________________________________
scale4b16_branch2b (Scale)      (None, 48, 48, 256)  512         bn4b16_branch2b[0][0]            
__________________________________________________________________________________________________
res4b16_branch2b_relu (Activati (None, 48, 48, 256)  0           scale4b16_branch2b[0][0]         
__________________________________________________________________________________________________
res4b16_branch2c (Conv2D)       (None, 48, 48, 1024) 262144      res4b16_branch2b_relu[0][0]      
__________________________________________________________________________________________________
bn4b16_branch2c (BatchNormaliza (None, 48, 48, 1024) 4096        res4b16_branch2c[0][0]           
__________________________________________________________________________________________________
scale4b16_branch2c (Scale)      (None, 48, 48, 1024) 2048        bn4b16_branch2c[0][0]            
__________________________________________________________________________________________________
res4b16 (Add)                   (None, 48, 48, 1024) 0           scale4b16_branch2c[0][0]         
                                                                 res4b15_relu[0][0]               
__________________________________________________________________________________________________
res4b16_relu (Activation)       (None, 48, 48, 1024) 0           res4b16[0][0]                    
__________________________________________________________________________________________________
res4b17_branch2a (Conv2D)       (None, 48, 48, 256)  262144      res4b16_relu[0][0]               
__________________________________________________________________________________________________
bn4b17_branch2a (BatchNormaliza (None, 48, 48, 256)  1024        res4b17_branch2a[0][0]           
__________________________________________________________________________________________________
scale4b17_branch2a (Scale)      (None, 48, 48, 256)  512         bn4b17_branch2a[0][0]            
__________________________________________________________________________________________________
res4b17_branch2a_relu (Activati (None, 48, 48, 256)  0           scale4b17_branch2a[0][0]         
__________________________________________________________________________________________________
res4b17_branch2b_zeropadding (Z (None, 50, 50, 256)  0           res4b17_branch2a_relu[0][0]      
__________________________________________________________________________________________________
res4b17_branch2b (Conv2D)       (None, 48, 48, 256)  589824      res4b17_branch2b_zeropadding[0][0
__________________________________________________________________________________________________
bn4b17_branch2b (BatchNormaliza (None, 48, 48, 256)  1024        res4b17_branch2b[0][0]           
__________________________________________________________________________________________________
scale4b17_branch2b (Scale)      (None, 48, 48, 256)  512         bn4b17_branch2b[0][0]            
__________________________________________________________________________________________________
res4b17_branch2b_relu (Activati (None, 48, 48, 256)  0           scale4b17_branch2b[0][0]         
__________________________________________________________________________________________________
res4b17_branch2c (Conv2D)       (None, 48, 48, 1024) 262144      res4b17_branch2b_relu[0][0]      
__________________________________________________________________________________________________
bn4b17_branch2c (BatchNormaliza (None, 48, 48, 1024) 4096        res4b17_branch2c[0][0]           
__________________________________________________________________________________________________
scale4b17_branch2c (Scale)      (None, 48, 48, 1024) 2048        bn4b17_branch2c[0][0]            
__________________________________________________________________________________________________
res4b17 (Add)                   (None, 48, 48, 1024) 0           scale4b17_branch2c[0][0]         
                                                                 res4b16_relu[0][0]               
__________________________________________________________________________________________________
res4b17_relu (Activation)       (None, 48, 48, 1024) 0           res4b17[0][0]                    
__________________________________________________________________________________________________
res4b18_branch2a (Conv2D)       (None, 48, 48, 256)  262144      res4b17_relu[0][0]               
__________________________________________________________________________________________________
bn4b18_branch2a (BatchNormaliza (None, 48, 48, 256)  1024        res4b18_branch2a[0][0]           
__________________________________________________________________________________________________
scale4b18_branch2a (Scale)      (None, 48, 48, 256)  512         bn4b18_branch2a[0][0]            
__________________________________________________________________________________________________
res4b18_branch2a_relu (Activati (None, 48, 48, 256)  0           scale4b18_branch2a[0][0]         
__________________________________________________________________________________________________
res4b18_branch2b_zeropadding (Z (None, 50, 50, 256)  0           res4b18_branch2a_relu[0][0]      
__________________________________________________________________________________________________
res4b18_branch2b (Conv2D)       (None, 48, 48, 256)  589824      res4b18_branch2b_zeropadding[0][0
__________________________________________________________________________________________________
bn4b18_branch2b (BatchNormaliza (None, 48, 48, 256)  1024        res4b18_branch2b[0][0]           
__________________________________________________________________________________________________
scale4b18_branch2b (Scale)      (None, 48, 48, 256)  512         bn4b18_branch2b[0][0]            
__________________________________________________________________________________________________
res4b18_branch2b_relu (Activati (None, 48, 48, 256)  0           scale4b18_branch2b[0][0]         
__________________________________________________________________________________________________
res4b18_branch2c (Conv2D)       (None, 48, 48, 1024) 262144      res4b18_branch2b_relu[0][0]      
__________________________________________________________________________________________________
bn4b18_branch2c (BatchNormaliza (None, 48, 48, 1024) 4096        res4b18_branch2c[0][0]           
__________________________________________________________________________________________________
scale4b18_branch2c (Scale)      (None, 48, 48, 1024) 2048        bn4b18_branch2c[0][0]            
__________________________________________________________________________________________________
res4b18 (Add)                   (None, 48, 48, 1024) 0           scale4b18_branch2c[0][0]         
                                                                 res4b17_relu[0][0]               
__________________________________________________________________________________________________
res4b18_relu (Activation)       (None, 48, 48, 1024) 0           res4b18[0][0]                    
__________________________________________________________________________________________________
res4b19_branch2a (Conv2D)       (None, 48, 48, 256)  262144      res4b18_relu[0][0]               
__________________________________________________________________________________________________
bn4b19_branch2a (BatchNormaliza (None, 48, 48, 256)  1024        res4b19_branch2a[0][0]           
__________________________________________________________________________________________________
scale4b19_branch2a (Scale)      (None, 48, 48, 256)  512         bn4b19_branch2a[0][0]            
__________________________________________________________________________________________________
res4b19_branch2a_relu (Activati (None, 48, 48, 256)  0           scale4b19_branch2a[0][0]         
__________________________________________________________________________________________________
res4b19_branch2b_zeropadding (Z (None, 50, 50, 256)  0           res4b19_branch2a_relu[0][0]      
__________________________________________________________________________________________________
res4b19_branch2b (Conv2D)       (None, 48, 48, 256)  589824      res4b19_branch2b_zeropadding[0][0
__________________________________________________________________________________________________
bn4b19_branch2b (BatchNormaliza (None, 48, 48, 256)  1024        res4b19_branch2b[0][0]           
__________________________________________________________________________________________________
scale4b19_branch2b (Scale)      (None, 48, 48, 256)  512         bn4b19_branch2b[0][0]            
__________________________________________________________________________________________________
res4b19_branch2b_relu (Activati (None, 48, 48, 256)  0           scale4b19_branch2b[0][0]         
__________________________________________________________________________________________________
res4b19_branch2c (Conv2D)       (None, 48, 48, 1024) 262144      res4b19_branch2b_relu[0][0]      
__________________________________________________________________________________________________
bn4b19_branch2c (BatchNormaliza (None, 48, 48, 1024) 4096        res4b19_branch2c[0][0]           
__________________________________________________________________________________________________
scale4b19_branch2c (Scale)      (None, 48, 48, 1024) 2048        bn4b19_branch2c[0][0]            
__________________________________________________________________________________________________
res4b19 (Add)                   (None, 48, 48, 1024) 0           scale4b19_branch2c[0][0]         
                                                                 res4b18_relu[0][0]               
__________________________________________________________________________________________________
res4b19_relu (Activation)       (None, 48, 48, 1024) 0           res4b19[0][0]                    
__________________________________________________________________________________________________
res4b20_branch2a (Conv2D)       (None, 48, 48, 256)  262144      res4b19_relu[0][0]               
__________________________________________________________________________________________________
bn4b20_branch2a (BatchNormaliza (None, 48, 48, 256)  1024        res4b20_branch2a[0][0]           
__________________________________________________________________________________________________
scale4b20_branch2a (Scale)      (None, 48, 48, 256)  512         bn4b20_branch2a[0][0]            
__________________________________________________________________________________________________
res4b20_branch2a_relu (Activati (None, 48, 48, 256)  0           scale4b20_branch2a[0][0]         
__________________________________________________________________________________________________
res4b20_branch2b_zeropadding (Z (None, 50, 50, 256)  0           res4b20_branch2a_relu[0][0]      
__________________________________________________________________________________________________
res4b20_branch2b (Conv2D)       (None, 48, 48, 256)  589824      res4b20_branch2b_zeropadding[0][0
__________________________________________________________________________________________________
bn4b20_branch2b (BatchNormaliza (None, 48, 48, 256)  1024        res4b20_branch2b[0][0]           
__________________________________________________________________________________________________
scale4b20_branch2b (Scale)      (None, 48, 48, 256)  512         bn4b20_branch2b[0][0]            
__________________________________________________________________________________________________
res4b20_branch2b_relu (Activati (None, 48, 48, 256)  0           scale4b20_branch2b[0][0]         
__________________________________________________________________________________________________
res4b20_branch2c (Conv2D)       (None, 48, 48, 1024) 262144      res4b20_branch2b_relu[0][0]      
__________________________________________________________________________________________________
bn4b20_branch2c (BatchNormaliza (None, 48, 48, 1024) 4096        res4b20_branch2c[0][0]           
__________________________________________________________________________________________________
scale4b20_branch2c (Scale)      (None, 48, 48, 1024) 2048        bn4b20_branch2c[0][0]            
__________________________________________________________________________________________________
res4b20 (Add)                   (None, 48, 48, 1024) 0           scale4b20_branch2c[0][0]         
                                                                 res4b19_relu[0][0]               
__________________________________________________________________________________________________
res4b20_relu (Activation)       (None, 48, 48, 1024) 0           res4b20[0][0]                    
__________________________________________________________________________________________________
res4b21_branch2a (Conv2D)       (None, 48, 48, 256)  262144      res4b20_relu[0][0]               
__________________________________________________________________________________________________
bn4b21_branch2a (BatchNormaliza (None, 48, 48, 256)  1024        res4b21_branch2a[0][0]           
__________________________________________________________________________________________________
scale4b21_branch2a (Scale)      (None, 48, 48, 256)  512         bn4b21_branch2a[0][0]            
__________________________________________________________________________________________________
res4b21_branch2a_relu (Activati (None, 48, 48, 256)  0           scale4b21_branch2a[0][0]         
__________________________________________________________________________________________________
res4b21_branch2b_zeropadding (Z (None, 50, 50, 256)  0           res4b21_branch2a_relu[0][0]      
__________________________________________________________________________________________________
res4b21_branch2b (Conv2D)       (None, 48, 48, 256)  589824      res4b21_branch2b_zeropadding[0][0
__________________________________________________________________________________________________
bn4b21_branch2b (BatchNormaliza (None, 48, 48, 256)  1024        res4b21_branch2b[0][0]           
__________________________________________________________________________________________________
scale4b21_branch2b (Scale)      (None, 48, 48, 256)  512         bn4b21_branch2b[0][0]            
__________________________________________________________________________________________________
res4b21_branch2b_relu (Activati (None, 48, 48, 256)  0           scale4b21_branch2b[0][0]         
__________________________________________________________________________________________________
res4b21_branch2c (Conv2D)       (None, 48, 48, 1024) 262144      res4b21_branch2b_relu[0][0]      
__________________________________________________________________________________________________
bn4b21_branch2c (BatchNormaliza (None, 48, 48, 1024) 4096        res4b21_branch2c[0][0]           
__________________________________________________________________________________________________
scale4b21_branch2c (Scale)      (None, 48, 48, 1024) 2048        bn4b21_branch2c[0][0]            
__________________________________________________________________________________________________
res4b21 (Add)                   (None, 48, 48, 1024) 0           scale4b21_branch2c[0][0]         
                                                                 res4b20_relu[0][0]               
__________________________________________________________________________________________________
res4b21_relu (Activation)       (None, 48, 48, 1024) 0           res4b21[0][0]                    
__________________________________________________________________________________________________
res4b22_branch2a (Conv2D)       (None, 48, 48, 256)  262144      res4b21_relu[0][0]               
__________________________________________________________________________________________________
bn4b22_branch2a (BatchNormaliza (None, 48, 48, 256)  1024        res4b22_branch2a[0][0]           
__________________________________________________________________________________________________
scale4b22_branch2a (Scale)      (None, 48, 48, 256)  512         bn4b22_branch2a[0][0]            
__________________________________________________________________________________________________
res4b22_branch2a_relu (Activati (None, 48, 48, 256)  0           scale4b22_branch2a[0][0]         
__________________________________________________________________________________________________
res4b22_branch2b_zeropadding (Z (None, 50, 50, 256)  0           res4b22_branch2a_relu[0][0]      
__________________________________________________________________________________________________
res4b22_branch2b (Conv2D)       (None, 48, 48, 256)  589824      res4b22_branch2b_zeropadding[0][0
__________________________________________________________________________________________________
bn4b22_branch2b (BatchNormaliza (None, 48, 48, 256)  1024        res4b22_branch2b[0][0]           
__________________________________________________________________________________________________
scale4b22_branch2b (Scale)      (None, 48, 48, 256)  512         bn4b22_branch2b[0][0]            
__________________________________________________________________________________________________
res4b22_branch2b_relu (Activati (None, 48, 48, 256)  0           scale4b22_branch2b[0][0]         
__________________________________________________________________________________________________
res4b22_branch2c (Conv2D)       (None, 48, 48, 1024) 262144      res4b22_branch2b_relu[0][0]      
__________________________________________________________________________________________________
bn4b22_branch2c (BatchNormaliza (None, 48, 48, 1024) 4096        res4b22_branch2c[0][0]           
__________________________________________________________________________________________________
scale4b22_branch2c (Scale)      (None, 48, 48, 1024) 2048        bn4b22_branch2c[0][0]            
__________________________________________________________________________________________________
res4b22 (Add)                   (None, 48, 48, 1024) 0           scale4b22_branch2c[0][0]         
                                                                 res4b21_relu[0][0]               
__________________________________________________________________________________________________
res4b22_relu (Activation)       (None, 48, 48, 1024) 0           res4b22[0][0]                    
__________________________________________________________________________________________________
res5a_branch2a (Conv2D)         (None, 24, 24, 512)  524288      res4b22_relu[0][0]               
__________________________________________________________________________________________________
bn5a_branch2a (BatchNormalizati (None, 24, 24, 512)  2048        res5a_branch2a[0][0]             
__________________________________________________________________________________________________
scale5a_branch2a (Scale)        (None, 24, 24, 512)  1024        bn5a_branch2a[0][0]              
__________________________________________________________________________________________________
res5a_branch2a_relu (Activation (None, 24, 24, 512)  0           scale5a_branch2a[0][0]           
__________________________________________________________________________________________________
res5a_branch2b_zeropadding (Zer (None, 26, 26, 512)  0           res5a_branch2a_relu[0][0]        
__________________________________________________________________________________________________
res5a_branch2b (Conv2D)         (None, 24, 24, 512)  2359296     res5a_branch2b_zeropadding[0][0] 
__________________________________________________________________________________________________
bn5a_branch2b (BatchNormalizati (None, 24, 24, 512)  2048        res5a_branch2b[0][0]             
__________________________________________________________________________________________________
scale5a_branch2b (Scale)        (None, 24, 24, 512)  1024        bn5a_branch2b[0][0]              
__________________________________________________________________________________________________
res5a_branch2b_relu (Activation (None, 24, 24, 512)  0           scale5a_branch2b[0][0]           
__________________________________________________________________________________________________
res5a_branch2c (Conv2D)         (None, 24, 24, 2048) 1048576     res5a_branch2b_relu[0][0]        
__________________________________________________________________________________________________
res5a_branch1 (Conv2D)          (None, 24, 24, 2048) 2097152     res4b22_relu[0][0]               
__________________________________________________________________________________________________
bn5a_branch2c (BatchNormalizati (None, 24, 24, 2048) 8192        res5a_branch2c[0][0]             
__________________________________________________________________________________________________
bn5a_branch1 (BatchNormalizatio (None, 24, 24, 2048) 8192        res5a_branch1[0][0]              
__________________________________________________________________________________________________
scale5a_branch2c (Scale)        (None, 24, 24, 2048) 4096        bn5a_branch2c[0][0]              
__________________________________________________________________________________________________
scale5a_branch1 (Scale)         (None, 24, 24, 2048) 4096        bn5a_branch1[0][0]               
__________________________________________________________________________________________________
res5a (Add)                     (None, 24, 24, 2048) 0           scale5a_branch2c[0][0]           
                                                                 scale5a_branch1[0][0]            
__________________________________________________________________________________________________
res5a_relu (Activation)         (None, 24, 24, 2048) 0           res5a[0][0]                      
__________________________________________________________________________________________________
res5b_branch2a (Conv2D)         (None, 24, 24, 512)  1048576     res5a_relu[0][0]                 
__________________________________________________________________________________________________
bn5b_branch2a (BatchNormalizati (None, 24, 24, 512)  2048        res5b_branch2a[0][0]             
__________________________________________________________________________________________________
scale5b_branch2a (Scale)        (None, 24, 24, 512)  1024        bn5b_branch2a[0][0]              
__________________________________________________________________________________________________
res5b_branch2a_relu (Activation (None, 24, 24, 512)  0           scale5b_branch2a[0][0]           
__________________________________________________________________________________________________
res5b_branch2b_zeropadding (Zer (None, 26, 26, 512)  0           res5b_branch2a_relu[0][0]        
__________________________________________________________________________________________________
res5b_branch2b (Conv2D)         (None, 24, 24, 512)  2359296     res5b_branch2b_zeropadding[0][0] 
__________________________________________________________________________________________________
bn5b_branch2b (BatchNormalizati (None, 24, 24, 512)  2048        res5b_branch2b[0][0]             
__________________________________________________________________________________________________
scale5b_branch2b (Scale)        (None, 24, 24, 512)  1024        bn5b_branch2b[0][0]              
__________________________________________________________________________________________________
res5b_branch2b_relu (Activation (None, 24, 24, 512)  0           scale5b_branch2b[0][0]           
__________________________________________________________________________________________________
res5b_branch2c (Conv2D)         (None, 24, 24, 2048) 1048576     res5b_branch2b_relu[0][0]        
__________________________________________________________________________________________________
bn5b_branch2c (BatchNormalizati (None, 24, 24, 2048) 8192        res5b_branch2c[0][0]             
__________________________________________________________________________________________________
scale5b_branch2c (Scale)        (None, 24, 24, 2048) 4096        bn5b_branch2c[0][0]              
__________________________________________________________________________________________________
res5b (Add)                     (None, 24, 24, 2048) 0           scale5b_branch2c[0][0]           
                                                                 res5a_relu[0][0]                 
__________________________________________________________________________________________________
res5b_relu (Activation)         (None, 24, 24, 2048) 0           res5b[0][0]                      
__________________________________________________________________________________________________
res5c_branch2a (Conv2D)         (None, 24, 24, 512)  1048576     res5b_relu[0][0]                 
__________________________________________________________________________________________________
bn5c_branch2a (BatchNormalizati (None, 24, 24, 512)  2048        res5c_branch2a[0][0]             
__________________________________________________________________________________________________
scale5c_branch2a (Scale)        (None, 24, 24, 512)  1024        bn5c_branch2a[0][0]              
__________________________________________________________________________________________________
res5c_branch2a_relu (Activation (None, 24, 24, 512)  0           scale5c_branch2a[0][0]           
__________________________________________________________________________________________________
res5c_branch2b_zeropadding (Zer (None, 26, 26, 512)  0           res5c_branch2a_relu[0][0]        
__________________________________________________________________________________________________
res5c_branch2b (Conv2D)         (None, 24, 24, 512)  2359296     res5c_branch2b_zeropadding[0][0] 
__________________________________________________________________________________________________
bn5c_branch2b (BatchNormalizati (None, 24, 24, 512)  2048        res5c_branch2b[0][0]             
__________________________________________________________________________________________________
scale5c_branch2b (Scale)        (None, 24, 24, 512)  1024        bn5c_branch2b[0][0]              
__________________________________________________________________________________________________
res5c_branch2b_relu (Activation (None, 24, 24, 512)  0           scale5c_branch2b[0][0]           
__________________________________________________________________________________________________
res5c_branch2c (Conv2D)         (None, 24, 24, 2048) 1048576     res5c_branch2b_relu[0][0]        
__________________________________________________________________________________________________
bn5c_branch2c (BatchNormalizati (None, 24, 24, 2048) 8192        res5c_branch2c[0][0]             
__________________________________________________________________________________________________
scale5c_branch2c (Scale)        (None, 24, 24, 2048) 4096        bn5c_branch2c[0][0]              
__________________________________________________________________________________________________
res5c (Add)                     (None, 24, 24, 2048) 0           scale5c_branch2c[0][0]           
                                                                 res5b_relu[0][0]                 
__________________________________________________________________________________________________
res5c_relu (Activation)         (None, 24, 24, 2048) 0           res5c[0][0]                      
__________________________________________________________________________________________________
conv2d_97 (Conv2D)              (None, 24, 24, 512)  1049088     res5c_relu[0][0]                 
__________________________________________________________________________________________________
re_lu_65 (ReLU)                 (None, 24, 24, 512)  0           conv2d_97[0][0]                  
__________________________________________________________________________________________________
conv2d_101 (Conv2D)             (None, 24, 24, 512)  2359808     re_lu_65[0][0]                   
__________________________________________________________________________________________________
re_lu_66 (ReLU)                 (None, 24, 24, 512)  0           conv2d_101[0][0]                 
__________________________________________________________________________________________________
conv2d_102 (Conv2D)             (None, 24, 24, 512)  2359808     re_lu_66[0][0]                   
__________________________________________________________________________________________________
add_51 (Add)                    (None, 24, 24, 512)  0           conv2d_102[0][0]                 
                                                                 conv2d_97[0][0]                  
__________________________________________________________________________________________________
re_lu_67 (ReLU)                 (None, 24, 24, 512)  0           add_51[0][0]                     
__________________________________________________________________________________________________
conv2d_103 (Conv2D)             (None, 24, 24, 512)  2359808     re_lu_67[0][0]                   
__________________________________________________________________________________________________
re_lu_68 (ReLU)                 (None, 24, 24, 512)  0           conv2d_103[0][0]                 
__________________________________________________________________________________________________
conv2d_104 (Conv2D)             (None, 24, 24, 512)  2359808     re_lu_68[0][0]                   
__________________________________________________________________________________________________
add_52 (Add)                    (None, 24, 24, 512)  0           conv2d_104[0][0]                 
                                                                 add_51[0][0]                     
__________________________________________________________________________________________________
conv2d_105 (Conv2D)             (None, 24, 24, 512)  2359808     add_52[0][0]                     
__________________________________________________________________________________________________
re_lu_69 (ReLU)                 (None, 24, 24, 512)  0           conv2d_105[0][0]                 
__________________________________________________________________________________________________
conv2d_98 (Conv2D)              (None, 48, 48, 256)  262400      res4b22_relu[0][0]               
__________________________________________________________________________________________________
conv2d_106 (Conv2D)             (None, 24, 24, 512)  2359808     re_lu_69[0][0]                   
__________________________________________________________________________________________________
re_lu_72 (ReLU)                 (None, 48, 48, 256)  0           conv2d_98[0][0]                  
__________________________________________________________________________________________________
max_pooling2d_18 (MaxPooling2D) (None, 24, 24, 512)  0           conv2d_106[0][0]                 
__________________________________________________________________________________________________
conv2d_110 (Conv2D)             (None, 48, 48, 256)  590080      re_lu_72[0][0]                   
__________________________________________________________________________________________________
conv2d_107 (Conv2D)             (None, 24, 24, 512)  2359808     max_pooling2d_18[0][0]           
__________________________________________________________________________________________________
add_53 (Add)                    (None, 24, 24, 512)  0           conv2d_106[0][0]                 
                                                                 re_lu_69[0][0]                   
__________________________________________________________________________________________________
re_lu_73 (ReLU)                 (None, 48, 48, 256)  0           conv2d_110[0][0]                 
__________________________________________________________________________________________________
add_54 (Add)                    (None, 24, 24, 512)  0           conv2d_107[0][0]                 
                                                                 add_53[0][0]                     
__________________________________________________________________________________________________
conv2d_111 (Conv2D)             (None, 48, 48, 256)  590080      re_lu_73[0][0]                   
__________________________________________________________________________________________________
re_lu_70 (ReLU)                 (None, 24, 24, 512)  0           add_54[0][0]                     
__________________________________________________________________________________________________
add_56 (Add)                    (None, 48, 48, 256)  0           conv2d_111[0][0]                 
                                                                 conv2d_98[0][0]                  
__________________________________________________________________________________________________
conv2d_108 (Conv2D)             (None, 24, 24, 512)  2359808     re_lu_70[0][0]                   
__________________________________________________________________________________________________
re_lu_74 (ReLU)                 (None, 48, 48, 256)  0           add_56[0][0]                     
__________________________________________________________________________________________________
re_lu_71 (ReLU)                 (None, 24, 24, 512)  0           conv2d_108[0][0]                 
__________________________________________________________________________________________________
conv2d_112 (Conv2D)             (None, 48, 48, 256)  590080      re_lu_74[0][0]                   
__________________________________________________________________________________________________
conv2d_109 (Conv2D)             (None, 24, 24, 512)  2359808     re_lu_71[0][0]                   
__________________________________________________________________________________________________
re_lu_75 (ReLU)                 (None, 48, 48, 256)  0           conv2d_112[0][0]                 
__________________________________________________________________________________________________
add_55 (Add)                    (None, 24, 24, 512)  0           conv2d_109[0][0]                 
                                                                 add_54[0][0]                     
__________________________________________________________________________________________________
conv2d_113 (Conv2D)             (None, 48, 48, 256)  590080      re_lu_75[0][0]                   
__________________________________________________________________________________________________
conv2d_114 (Conv2D)             (None, 24, 24, 256)  1179904     add_55[0][0]                     
__________________________________________________________________________________________________
add_57 (Add)                    (None, 48, 48, 256)  0           conv2d_113[0][0]                 
                                                                 add_56[0][0]                     
__________________________________________________________________________________________________
upsampling_9 (Upsampling)       (None, 48, 48, 256)  0           conv2d_114[0][0]                 
__________________________________________________________________________________________________
conv2d_115 (Conv2D)             (None, 48, 48, 256)  590080      add_57[0][0]                     
__________________________________________________________________________________________________
add_58 (Add)                    (None, 48, 48, 256)  0           upsampling_9[0][0]               
                                                                 conv2d_115[0][0]                 
__________________________________________________________________________________________________
re_lu_76 (ReLU)                 (None, 48, 48, 256)  0           add_58[0][0]                     
__________________________________________________________________________________________________
conv2d_99 (Conv2D)              (None, 96, 96, 256)  131328      res3b3_relu[0][0]                
__________________________________________________________________________________________________
conv2d_116 (Conv2D)             (None, 48, 48, 256)  590080      re_lu_76[0][0]                   
__________________________________________________________________________________________________
re_lu_79 (ReLU)                 (None, 96, 96, 256)  0           conv2d_99[0][0]                  
__________________________________________________________________________________________________
max_pooling2d_20 (MaxPooling2D) (None, 48, 48, 256)  0           conv2d_116[0][0]                 
__________________________________________________________________________________________________
conv2d_120 (Conv2D)             (None, 96, 96, 256)  590080      re_lu_79[0][0]                   
__________________________________________________________________________________________________
conv2d_117 (Conv2D)             (None, 48, 48, 256)  590080      max_pooling2d_20[0][0]           
__________________________________________________________________________________________________
add_59 (Add)                    (None, 48, 48, 256)  0           conv2d_116[0][0]                 
                                                                 re_lu_76[0][0]                   
__________________________________________________________________________________________________
re_lu_80 (ReLU)                 (None, 96, 96, 256)  0           conv2d_120[0][0]                 
__________________________________________________________________________________________________
add_60 (Add)                    (None, 48, 48, 256)  0           conv2d_117[0][0]                 
                                                                 add_59[0][0]                     
__________________________________________________________________________________________________
conv2d_121 (Conv2D)             (None, 96, 96, 256)  590080      re_lu_80[0][0]                   
__________________________________________________________________________________________________
re_lu_77 (ReLU)                 (None, 48, 48, 256)  0           add_60[0][0]                     
__________________________________________________________________________________________________
add_62 (Add)                    (None, 96, 96, 256)  0           conv2d_121[0][0]                 
                                                                 conv2d_99[0][0]                  
__________________________________________________________________________________________________
conv2d_118 (Conv2D)             (None, 48, 48, 256)  590080      re_lu_77[0][0]                   
__________________________________________________________________________________________________
re_lu_81 (ReLU)                 (None, 96, 96, 256)  0           add_62[0][0]                     
__________________________________________________________________________________________________
re_lu_78 (ReLU)                 (None, 48, 48, 256)  0           conv2d_118[0][0]                 
__________________________________________________________________________________________________
conv2d_122 (Conv2D)             (None, 96, 96, 256)  590080      re_lu_81[0][0]                   
__________________________________________________________________________________________________
conv2d_119 (Conv2D)             (None, 48, 48, 256)  590080      re_lu_78[0][0]                   
__________________________________________________________________________________________________
re_lu_82 (ReLU)                 (None, 96, 96, 256)  0           conv2d_122[0][0]                 
__________________________________________________________________________________________________
add_61 (Add)                    (None, 48, 48, 256)  0           conv2d_119[0][0]                 
                                                                 add_60[0][0]                     
__________________________________________________________________________________________________
conv2d_123 (Conv2D)             (None, 96, 96, 256)  590080      re_lu_82[0][0]                   
__________________________________________________________________________________________________
conv2d_124 (Conv2D)             (None, 48, 48, 256)  590080      add_61[0][0]                     
__________________________________________________________________________________________________
add_63 (Add)                    (None, 96, 96, 256)  0           conv2d_123[0][0]                 
                                                                 add_62[0][0]                     
__________________________________________________________________________________________________
upsampling_10 (Upsampling)      (None, 96, 96, 256)  0           conv2d_124[0][0]                 
__________________________________________________________________________________________________
conv2d_125 (Conv2D)             (None, 96, 96, 256)  590080      add_63[0][0]                     
__________________________________________________________________________________________________
add_64 (Add)                    (None, 96, 96, 256)  0           upsampling_10[0][0]              
                                                                 conv2d_125[0][0]                 
__________________________________________________________________________________________________
re_lu_83 (ReLU)                 (None, 96, 96, 256)  0           add_64[0][0]                     
__________________________________________________________________________________________________
conv2d_100 (Conv2D)             (None, 192, 192, 256 65792       res2c_relu[0][0]                 
__________________________________________________________________________________________________
conv2d_126 (Conv2D)             (None, 96, 96, 256)  590080      re_lu_83[0][0]                   
__________________________________________________________________________________________________
re_lu_86 (ReLU)                 (None, 192, 192, 256 0           conv2d_100[0][0]                 
__________________________________________________________________________________________________
max_pooling2d_22 (MaxPooling2D) (None, 96, 96, 256)  0           conv2d_126[0][0]                 
__________________________________________________________________________________________________
conv2d_130 (Conv2D)             (None, 192, 192, 256 590080      re_lu_86[0][0]                   
__________________________________________________________________________________________________
conv2d_127 (Conv2D)             (None, 96, 96, 256)  590080      max_pooling2d_22[0][0]           
__________________________________________________________________________________________________
add_65 (Add)                    (None, 96, 96, 256)  0           conv2d_126[0][0]                 
                                                                 re_lu_83[0][0]                   
__________________________________________________________________________________________________
re_lu_87 (ReLU)                 (None, 192, 192, 256 0           conv2d_130[0][0]                 
__________________________________________________________________________________________________
add_66 (Add)                    (None, 96, 96, 256)  0           conv2d_127[0][0]                 
                                                                 add_65[0][0]                     
__________________________________________________________________________________________________
conv2d_131 (Conv2D)             (None, 192, 192, 256 590080      re_lu_87[0][0]                   
__________________________________________________________________________________________________
re_lu_84 (ReLU)                 (None, 96, 96, 256)  0           add_66[0][0]                     
__________________________________________________________________________________________________
add_68 (Add)                    (None, 192, 192, 256 0           conv2d_131[0][0]                 
                                                                 conv2d_100[0][0]                 
__________________________________________________________________________________________________
conv2d_128 (Conv2D)             (None, 96, 96, 256)  590080      re_lu_84[0][0]                   
__________________________________________________________________________________________________
re_lu_88 (ReLU)                 (None, 192, 192, 256 0           add_68[0][0]                     
__________________________________________________________________________________________________
re_lu_85 (ReLU)                 (None, 96, 96, 256)  0           conv2d_128[0][0]                 
__________________________________________________________________________________________________
conv2d_132 (Conv2D)             (None, 192, 192, 256 590080      re_lu_88[0][0]                   
__________________________________________________________________________________________________
conv2d_129 (Conv2D)             (None, 96, 96, 256)  590080      re_lu_85[0][0]                   
__________________________________________________________________________________________________
re_lu_89 (ReLU)                 (None, 192, 192, 256 0           conv2d_132[0][0]                 
__________________________________________________________________________________________________
add_67 (Add)                    (None, 96, 96, 256)  0           conv2d_129[0][0]                 
                                                                 add_66[0][0]                     
__________________________________________________________________________________________________
conv2d_133 (Conv2D)             (None, 192, 192, 256 590080      re_lu_89[0][0]                   
__________________________________________________________________________________________________
conv2d_134 (Conv2D)             (None, 96, 96, 256)  590080      add_67[0][0]                     
__________________________________________________________________________________________________
add_69 (Add)                    (None, 192, 192, 256 0           conv2d_133[0][0]                 
                                                                 add_68[0][0]                     
__________________________________________________________________________________________________
…
